checkpoint_actor22.pth (torch_old, 164047 bytes, 10 tensors)

fc1.weight f4 [256, 24]
000000 fd 58 06 3d 6f ba f0 3e 9b b6 ee 3c 43 5a a6 3d
       0.03279971 0.47017238 0.029139807 0.08122685
000010 b8 b3 43 3f 3f dd da be 83 8a 1d 3d 0d 29 5d 3d
       0.76446104 -0.42746922 0.038462173 0.053994227
000020 34 95 46 be fd 7b cb 3e 18 26 dd 3c e6 7b e3 bd
       -0.19392854 0.39743033 0.026995704 -0.11107616
000030 f9 d4 c6 3e e2 3d 2c bf cc ec 9d 3c 38 66 54 be
       0.3883436 -0.67281926 0.019277953 -0.20742118
000040 72 c2 a9 be e3 2c 8d 3e 6f 2f 50 be 94 07 cd bd
       -0.33156163 0.27573308 -0.20330594 -0.10011211
000050 68 08 09 3e fe 22 5a bf 3a 4a 5d be 4c 67 a9 bd
       0.13382113 -0.85209644 -0.21610346 -0.082716554
000060 bf 04 c1 3e ef 88 2c 3f 23 41 ac 3c f9 c6 b8 be
       0.37698933 0.67396444 0.021027153 -0.36089304
000070 bc c1 32 bd c3 81 81 bd e6 05 08 3e be c1 b8 be
       -0.04364179 -0.06323578 0.132835 -0.36085314
000080 55 b7 c2 3e e8 8f 1c 3f 51 12 eb 3d 0f b6 46 be
       0.38030496 0.61157084 0.11478103 -0.19405387
000090 fc 79 13 be 57 4d 83 be 78 2c de 3d d4 bb 2a be
       -0.14402002 -0.25644943 0.108483255 -0.16673213
0000a0 5d 88 38 3d eb 0e 0b 3f f6 f7 c7 3d 09 f3 4d 3e
       0.04505192 0.5431964 0.09764092 0.20112242
0000b0 12 f6 88 be 60 cc eb be 37 64 ce 3d 15 52 45 3e
       -0.26750237 -0.46054363 0.10077708 0.19269593
0000c0 21 53 f5 3d e4 82 b5 be 8b a3 77 3e 76 3a 87 3e
       0.11978746 -0.35451424 0.2418348 0.2641179
0000d0 78 60 9a 3d 6d 2a 16 bf c0 d8 33 3e 4e 0a 9e 3e
       0.07537931 -0.58658487 0.17563152 0.30867237
0000e0 e7 e6 63 3e ff 05 52 be 6a 5e c0 3e c2 b3 51 3c
       0.22256051 -0.205101 0.37572032 0.012799205
0000f0 51 b7 55 3d 77 95 11 bf 11 d0 8c 3e ff 62 d6 3d
       0.052176777 -0.5686869 0.27502492 0.10468101
000100 0d 35 93 3e c4 ef 61 bd 75 59 47 3e bf f6 07 3d
       0.28751412 -0.0551603 0.19467719 0.0331943
000110 f6 a7 25 3d e8 78 56 be d3 73 8c 3e 7c 74 a0 3d
       0.040443383 -0.2094456 0.27432117 0.07834718
000120 b0 b4 99 3f 38 f4 2a 3d 8f 32 a8 3d ff f7 e8 3b
       1.2008266 0.04173681 0.08212768 0.0071096416
000130 32 90 97 bc d1 ee 43 bf 61 6c b0 3d 6e 85 18 3d
       -0.018501375 -0.7653628 0.08614422 0.037236623
000140 e3 5a 33 3f cf 9f d4 bd fa d3 0d bd 83 06 e1 3d
       0.7006056 -0.103820436 -0.034625985 0.1098757
000150 6d 1c 32 be 9d c2 41 bf 99 10 82 bd 69 29 17 3e
       -0.17393656 -0.7568758 -0.06350822 0.1476189
000160 0d ca b5 bd cb 18 e5 be 21 fc 7c bd 5c 38 1e be
       -0.08876429 -0.44745478 -0.061763886 -0.15451187
000170 0b a2 8f bb 9e ac b9 be a0 5e f2 bb a9 60 29 be
       -0.0043833307 -0.3626451 -0.007396534 -0.16540779
000180 00 76 19 be 97 12 35 3f e9 ec 91 bd de 38 a4 3e
       -0.1498642 0.7073149 -0.07125265 0.32074636
000190 83 c3 a0 3d 35 b7 4e bd 07 26 12 bd f0 13 c7 3e
       0.07849791 -0.05046769 -0.035680797 0.388824
0001a0 00 b4 14 bd a1 53 31 3f 3b bf 9e 3c e5 07 4c be
       -0.036304474 0.6926823 0.019378295 -0.19924887
0001b0 5f ba 36 3e e7 ea 17 3e ce ae d0 3d 74 74 5d be
       0.17844532 0.14835702 0.10189591 -0.21626455
0001c0 f0 69 e0 3c 72 ec 0f 3f d9 c4 8b 3c c1 1e 39 bf
       0.027394265 0.5622016 0.017061638 -0.7231255
0001d0 7c 4c 09 3e 93 d5 06 3f 73 31 f3 3d 78 f8 44 bf
       0.13408083 0.5266964 0.11874666 -0.76941633
0001e0 b0 6b f6 3d 5b 41 dc 3e cc dc 8e 3e 50 04 4e 3d
       0.120322585 0.43018612 0.2790283 0.05029708
0001f0 72 59 80 be b9 3b af bd 1b 21 8d 3e b8 dc 00 bd
       -0.2506824 -0.08556313 0.2756432 -0.031460494
000200 f3 72 80 3d 25 a6 9b 3e 07 c4 e1 3d 9f de 16 bf
       0.06271925 0.30400196 0.110237174 -0.5893344
000210 87 7c 9b be b8 15 c8 bd 40 ba d3 3d f4 b8 1d bf
       -0.30368444 -0.097697675 0.10338259 -0.6161034
000220 43 29 e3 bc 5e aa 33 3e e4 b8 d5 3d d9 ca 8b be
       -0.027729636 0.17545459 0.10435656 -0.27303198
000230 1a 5c 66 be b4 8a b0 3d 8f 1a b8 3d 00 75 8b be
       -0.22496071 0.086202055 0.08989441 -0.272377
000240 c6 1a 9b 3e c1 29 0c 3e 8a d5 75 3b 34 9f df be
       0.30293864 0.13687803 0.0037511312 -0.4367615
000250 0e da 32 3e 3a 5c 12 bc c2 24 d4 3c 67 6b df be
       0.17465994 -0.008933121 0.025896434 -0.4363663
000260 75 7b 16 3e d2 ad a4 bd 59 69 63 3d 3a 06 c4 be
       0.14695533 -0.08040966 0.05552039 -0.38286
000270 a9 f7 6b 3e 9d 36 94 3e 7a 27 d3 3c 46 4f dc be
       0.23043694 0.28947917 0.02577566 -0.4302923
000280 07 87 14 3e 35 6e 8c be 53 78 9a bd 08 99 3d bf
       0.14504634 -0.2742783 -0.07542481 -0.7406163
000290 76 b8 3a 3e 5d a6 d4 3e 5b eb 84 bd 4d 4c 40 bf
       0.18234429 0.41533175 -0.06490203 -0.75116426
0002a0 28 f2 4f 3e 9d 9c 44 3e 59 8c 69 3d 41 e9 02 bf
       0.20307219 0.19200368 0.05701861 -0.5113717
0002b0 50 42 53 3e e8 92 87 be 4d c6 9c 3d 96 63 ea be
       0.20630765 -0.26479268 0.0765501 -0.45779103
0002c0 30 d1 e2 3d 6c 2f e9 3d a1 16 24 3e d4 1e b1 be
       0.110750556 0.11385998 0.16024257 -0.34593832
0002d0 7e 85 7b 3d 13 bc b1 be 45 ea 12 3e 95 b7 9f be
       0.061406605 -0.34713802 0.14347179 -0.3119475
0002e0 e6 60 1d bc 14 66 1a 3e 9d 76 d5 3d b7 3b 86 3e
       -0.009605622 0.15078002 0.10423014 0.26217434
0002f0 9d 2f 68 3d 67 4f 67 be 60 71 30 3e 18 f1 a3 3e
       0.056686033 -0.22588883 0.17230749 0.32019877
000300 ca 3e b4 3e 84 a9 f6 bd 09 70 7d 3e 7b 06 83 be
       0.35204154 -0.12044051 0.2474977 -0.25590882
000310 fa b8 aa 3d 1e 82 48 3e 77 f2 42 3e fd fc 7a be
       0.08336063 0.19580886 0.19037805 -0.2451057
000320 48 aa 51 3e 82 68 9b bd 2a 72 06 bb bd 16 ab be
       0.20475113 -0.07588293 -0.0020514824 -0.33415785
000330 fe 44 1e 3e 5d 8e ff 3e de df b6 3d f7 49 bb be
       0.15456006 0.49913302 0.08929418 -0.36579868
000340 54 91 7a 3e 21 0c f0 bc fc d3 01 3c 86 d0 11 bf
       0.24469501 -0.029302659 0.007924076 -0.56958807
000350 8d bd a0 3e c6 92 26 3f 0a f4 3a bd 48 fc 12 bf
       0.31394616 0.6506771 -0.04564289 -0.574162
000360 f6 ae cf bd 4d f2 78 3f a8 09 33 3d c0 ba 38 bd
       -0.10140793 0.9724472 0.04371038 -0.045099974
000370 17 a2 04 3f 3d be e4 3e a6 ae b2 3d 83 1b 6b bd
       0.5180983 0.4467639 0.08724718 -0.057399284
000380 3f 07 57 be 50 c2 6d 3f d2 f0 6c bc e4 15 0a 3e
       -0.20998858 0.9287462 -0.014461713 0.13484913
000390 54 9c 08 3f 9f 97 55 3e 1c ec 0f 3c 64 ee ec 3d
       0.5336354 0.2085862 0.00878432 0.11568907
0003a0 60 b3 7b be b4 e7 44 3f f6 b7 63 3e 47 18 90 3d
       -0.24580145 0.7691605 0.22238144 0.070358805
0003b0 56 11 1c 3f bf 0d 3a 3d f8 43 38 3e d0 7f 8a 3c
       0.6096395 0.045423266 0.17994678 0.016906649
0003c0 b7 e8 61 3d f6 85 10 3f 50 b6 b4 3d e8 ae 9d 3e
       0.055153575 0.5645441 0.08823836 0.30797505
0003d0 0a b2 b0 be f5 39 52 3e a2 12 3a 3d 20 6a a9 3e
       -0.34510833 0.20529921 0.045427926 0.3308878
0003e0 42 35 e0 3c 80 fd f8 3e 63 02 b0 3d f4 58 6d be
       0.027369145 0.48630905 0.08594205 -0.23178464
0003f0 58 b2 cc be 3d 4c b1 3c fe 7d 97 3c 98 7d 4e be
       -0.39979815 0.021642799 0.018492695 -0.20165098

fc1.bias f4 [256]
000000 86 8b 06 3e 3b ec 3e 3e d9 28 16 be 97 dc a0 bd
       0.13139161 0.18644802 -0.1466402 -0.07854574
000010 bf 63 a6 3d 8e 03 4d 3e fb 46 18 be 7e 88 c9 3d
       0.08124494 0.20020887 -0.14870827 0.09840487
000020 2c 2d fb bd c8 b8 9e bd 60 af 34 be 7f 42 0a 3d
       -0.12264475 -0.07750088 -0.17645025 0.033754822
000030 fa d8 2d 3e 0f 51 49 be b5 ae ce bd b2 ac ca 3d
       0.16977301 -0.19659828 -0.100919165 0.0989622
000040 de eb 4e 3e 45 ed 98 3d db 76 06 3e 6c 34 0b 3d
       0.20207164 0.074671306 0.13131277 0.03398554
000050 67 b2 8d 3d ed 7b 01 be 44 e9 94 3d b2 35 41 3e
       0.06918793 -0.1264493 0.072710544 0.1886814
000060 0b 4c 8a bd 5f 6a 15 3d 35 ac fa bb 3a 37 0d 3e
       -0.06752785 0.036478397 -0.007649923 0.13790599
000070 a7 07 3e 3d 0c 57 a3 3d ab 55 33 bd c9 6f 34 3e
       0.046394017 0.07975587 -0.04378287 0.17620768
000080 8d 83 32 be 0e 53 d4 3d 6e 0e 50 3e 29 49 be bc
       -0.17432995 0.10367404 0.20318004 -0.023228245
000090 5a ac 29 be c1 bf d5 3d a1 68 02 3e f1 90 35 be
       -0.16569653 0.10436965 0.12735225 -0.17731072
0000a0 37 0b df bd be fe 61 bb 64 62 5f 3d 66 44 d9 3d
       -0.10890811 -0.0034484114 0.054537192 0.10608749
0000b0 f4 52 45 be 7c 93 8c bd ba 76 36 be 63 fc 38 bc
       -0.19269925 -0.06864068 -0.17818728 -0.011290642
0000c0 42 44 13 be f7 c1 32 3e b4 be d0 3b 42 65 9a 3c
       -0.14381507 0.17456804 0.00637039 0.018847112
0000d0 d6 55 2b 3e 5d 01 45 bd ba 13 b3 3c c5 7d 25 3e
       0.16731963 -0.048097003 0.021859992 0.16161259
0000e0 6f 2d 45 3d 45 25 b6 bd eb c4 ee bd 26 f7 d0 3d
       0.048139032 -0.08893827 -0.11658653 0.1020339
0000f0 53 08 87 bd 7e 22 4d be 4e 6b 27 3d 8c 79 20 be
       -0.065933846 -0.20032689 0.040873818 -0.15671366
000100 b7 21 40 be b9 f7 95 3d 2e b3 ce bd b0 00 05 3e
       -0.18762861 0.0732264 -0.100927696 0.12988544
000110 1e 16 2b 3e 06 88 43 3d e9 87 23 be 06 2a a8 3d
       0.16707656 0.047737144 -0.15969814 0.0821114
000120 bd 0d 3b 3d e8 f0 3e be 53 55 26 be 2e 1c a1 3d
       0.0456674 -0.18646586 -0.16243486 0.07866703
000130 31 76 8e 3c 5b cc d3 3a ca 60 df bc 81 a8 13 be
       0.017390342 0.0016158925 -0.027267832 -0.14419748
000140 b3 7d 4c be 9a ce e5 3c f7 f1 2d bd 4b f9 20 bc
       -0.19969825 0.028052617 -0.042467084 -0.009825061
000150 5e b3 41 bd cf ab 8c 3d f4 77 b0 bd 60 cc 03 be
       -0.0472902 0.068687074 -0.08616629 -0.12870932
000160 e5 c2 cd 3d f6 f6 71 3d 50 18 3e be 7f bc 3d be
       0.10046939 0.05907341 -0.18563962 -0.18528937
000170 24 92 23 be 84 8e 4e 3e 89 d6 e4 3d 1c 02 8f 3c
       -0.15973717 0.20171553 0.11173732 0.01745706
000180 e1 20 36 be fa d7 2a 3d d9 12 2c be 4a 32 4a be
       -0.1778598 0.041709878 -0.16804065 -0.19745746
000190 60 ca a6 bd 9d ac 33 be c8 3f 05 3e cb 01 33 3e
       -0.08144069 -0.17546315 0.13012612 0.17481153
0001a0 92 66 d0 3d c6 46 cf bd fe 8d 3b 3e e1 e2 8d 3c
       0.10175814 -0.10120921 0.18315884 0.017320098
0001b0 64 f3 b8 bd f5 b0 3a bd b5 dc f8 bd 87 88 16 3e
       -0.09030798 -0.045578916 -0.121514715 0.14700519
0001c0 f4 6a 5c bd ad 83 e6 bd 9a 24 3d be 07 b6 d7 bd
       -0.053812936 -0.11255584 -0.18470994 -0.10532766
0001d0 aa 0b 0f bd 49 65 95 bd f7 2f b8 bc 46 c8 41 3e
       -0.034923233 -0.07294709 -0.022483809 0.18924055
0001e0 c1 63 82 3d be 30 0b be 73 25 fa 3d 9e aa ca 3d
       0.06366683 -0.13592812 0.12214174 0.09895824
0001f0 ee 10 bf 3d a2 86 1e be 03 fd 43 be 71 42 47 3d
       0.09329401 -0.15481046 -0.19139485 0.048647348
000200 ac 1c 37 3e 20 f8 4c 3d 0b 7e 00 3e 78 d5 14 3d
       0.17882031 0.050041318 0.12548082 0.036336392
000210 96 a5 2a 3d 85 4a de 3d f6 64 7f bd 45 50 20 3e
       0.04166182 0.10854057 -0.062352143 0.1565562
000220 d8 49 37 be 45 36 9f bd de 89 0e 3d ff ec 11 bd
       -0.17899263 -0.07774023 0.03479945 -0.035626408
000230 37 88 2f be fd 4b e1 3d e9 b1 3c be 23 4b 8e bd
       -0.17141806 0.11000822 -0.18427242 -0.06947925
000240 49 6d f5 3d ae 6d 1b bd fa 83 eb 3d 73 28 f7 bd
       0.11983735 -0.037946396 0.11499782 -0.12068262
000250 fe 89 98 bd 93 58 c3 3d 80 66 69 bc 8b df 4c 3e
       -0.07448195 0.095383786 -0.014245629 0.2000715
000260 8f 7d 79 bd cf f9 e6 3d b0 1f f7 3b 62 5f 1f bd
       -0.060910758 0.11278116 0.0075416192 -0.038909324
000270 11 8a 37 3c ef 0c 25 be 5c 79 b3 3c ce 62 21 be
       0.011202351 -0.16118215 0.021908455 -0.15760347
000280 76 55 1a 3e e8 a9 9c bd 23 69 08 bc 3b b0 4f be
       0.15071663 -0.076495945 -0.008325848 -0.2028207
000290 64 b8 40 bc cb 37 bb bc 04 81 27 3e 17 2b 8e bd
       -0.011762712 -0.022853753 0.1635781 -0.069418125
0002a0 05 75 7b 3d b2 5e d0 bd 1b f7 e6 bd 60 10 12 bb
       0.061390895 -0.10174312 -0.112776004 -0.0022287592
0002b0 ed 51 4b 3e 6e 0f cb 3c 9e 10 03 be 30 a4 c1 bc
       0.19855471 0.02478763 -0.12799308 -0.023637861
0002c0 15 02 4e be b3 f9 ef bc e4 51 46 bd 9b d4 42 bd
       -0.20117982 -0.02929387 -0.04841794 -0.047566038
0002d0 03 b8 b1 bd d5 cd 47 be ed 8a 2f bd 6b fd ae bd
       -0.086776756 -0.19512112 -0.0428571 -0.085444294
0002e0 10 66 90 3d 41 87 3d 3e 4b d8 1d be 25 23 e8 3d
       0.07050717 0.18508627 -0.1541454 0.11334828
0002f0 e9 55 1b be 6b e7 23 3e 49 b2 3e bc 30 82 86 bd
       -0.15169491 0.16006248 -0.011639186 -0.065678
000300 32 14 1a 3e 79 f2 fb bd f2 a1 a2 bd f5 96 eb bc
       0.15046766 -0.12302107 -0.07941045 -0.028758505
000310 30 50 06 3e d1 0a 4f 3e b0 bc d8 bd 6d 1e c2 bc
       0.13116527 0.2021897 -0.10582864 -0.023696149
000320 a3 40 4c 3e 9b f6 94 bd 98 09 3c 3e 6a 08 41 be
       0.19946532 -0.07273599 0.18363035 -0.18850866
000330 0b d2 7f bd 54 11 3a 3e ca 67 d6 bd 83 88 ad bd
       -0.062456172 0.18170673 -0.10469015 -0.08473303
000340 51 7e d9 3d 6a d0 18 3e 95 a9 50 bc 79 95 83 3b
       0.10619796 0.14923254 -0.012735744 0.0040156213
000350 ea dd a9 bd b8 6b e8 bd bc bc 27 be 5e 82 9a bc
       -0.0829428 -0.11348671 -0.1638059 -0.018860992
000360 5e eb 1d be fb a4 79 3d c5 48 19 be 5c 4f c1 3d
       -0.15421817 0.060948353 -0.14969166 0.09438965
000370 e4 bc f2 3d f9 31 0f be 6c 65 be 3d 23 fa 4c 3e
       0.11852434 -0.13983907 0.092966884 0.20017295
000380 ec 08 07 be e6 50 81 bd 68 e8 db bd 75 54 0b be
       -0.13186997 -0.06314258 -0.10737687 -0.13606437
000390 db bb 88 bd d5 70 4b be 3a 7e 2d be 3c 0e 13 3d
       -0.066764556 -0.19867261 -0.16942683 0.035902247
0003a0 46 56 13 bd d1 62 3a be 8e d0 e5 3d 15 7d 31 3d
       -0.03597095 -0.18201758 0.11221419 0.04333218
0003b0 56 4c 4d be 71 a6 88 bd 5f 81 ab 3d f3 97 40 be
       -0.20048651 -0.06672371 0.08374285 -0.18807964
0003c0 5f 2a 15 be d9 43 28 be 2a 3b b8 3c 0e 86 36 be
       -0.14566945 -0.16432132 0.02248915 -0.17824575
0003d0 2d 9c 2f be f1 af 35 3e a5 ca 00 3d 80 df d2 bd
       -0.1714942 0.17742898 0.031443257 -0.102965355
0003e0 15 c9 84 3b 1f 9c b0 bd 2f 2c 2e 3e 3c 73 5c bc
       0.004052291 -0.08623528 0.17009042 -0.013455208
0003f0 44 18 63 3c 94 5c f2 3d 4d 82 c9 3d 2a 82 4c 3e
       0.013860766 0.11834064 0.09839306 0.19971529

bn1.weight f4 [256]
000000 bb cc 72 3f 20 6e fb 3e 32 21 43 3f 9a 05 4d 3f
       0.94843644 0.49107456 0.7622253 0.8008667
000010 d5 ea 75 3f c8 91 12 3f a6 ed 55 3f b3 dd 15 3f
       0.9606145 0.57253695 0.8356575 0.5854141
000020 e7 42 57 3f 16 4e 1a 3f 86 f2 1c 3f 2a 97 56 3f
       0.8408646 0.602754 0.6130756 0.8382441
000030 97 cb 37 3f db 14 5b 3f 29 d9 77 3f 7f c9 36 3f
       0.7179503 0.855787 0.96815735 0.7140121
000040 c8 0b 32 3f 19 b9 30 3f 15 39 7a 3f 74 c7 c9 3f
       0.69549227 0.69032437 0.9774335 1.5763993
000050 ce ce 2d 3f db c3 4c 3f 6e fe 5b 3f 35 3d 3e 3f
       0.67893684 0.7998635 0.85935104 0.74312145
000060 e2 0c 33 3f 32 ac cc 3e 91 3c b9 3f 13 ee 93 3f
       0.6994153 0.39975125 1.4471608 1.155703
000070 df 27 43 3f 1e ad 7a 3f a6 3e 8e 3f 31 71 6f 3f
       0.76232713 0.97920406 1.1112869 0.9353209
000080 f6 49 83 3f 4a dd 89 3f d2 30 0e 3f cd 0e 78 3f
       1.0256946 1.0770657 0.55543244 0.96897584
000090 62 2f e2 3e 16 50 11 3f 31 75 86 3f 53 97 90 3f
       0.44176775 0.56762826 1.0504514 1.129618
0000a0 cd 7b 95 3f 08 d3 c7 3e 55 2b 6a 3f 1b d0 1d 3f
       1.1678406 0.39028192 0.9147237 0.6164567
0000b0 d1 cd 4b 3f fa d1 3d 3f 8c dc 11 3f c7 1b 44 3f
       0.79610926 0.74148524 0.5697715 0.76604885
0000c0 04 67 6d 3f c9 4d 8c 3f d5 5d 36 3f 9e b1 49 3f
       0.92735314 1.0961238 0.71236926 0.7878665
0000d0 ed f1 94 3f 69 8f 7b 3f cf fa ba 3f bc 38 4b 3f
       1.163633 0.982657 1.4607791 0.79383445
0000e0 83 99 1e 3f aa 53 26 3f 7c 67 04 3f 5e 20 79 3f
       0.6195299 0.6497141 0.51720405 0.97315013
0000f0 e5 aa c2 3f 32 93 53 3f 32 30 8a 3f e0 ea 4c 3f
       1.5208403 0.8264648 1.0795958 0.8004589
000100 c4 6c 89 3f 94 57 5d 3f ca ff 5c 3f cf ec 5c 3f
       1.0736318 0.8646176 0.86327803 0.8629884
000110 6b 38 78 3f 6c e4 bb 3f 74 8d 5b 3f 1f 3b 11 3f
       0.96961087 1.4679084 0.85762715 0.56730837
000120 9f 8e 2a 3f fe bd 7b 3f bf 17 5e 3f 91 1c c1 3f
       0.6662387 0.9833678 0.86754984 1.5086843
000130 de 34 5d 3f 28 5b 48 3f 23 13 e1 3e b7 ce 2f 3f
       0.86408794 0.78264093 0.43959913 0.68674797
000140 f6 7b 07 3f fa 33 75 3f 23 46 39 3f 79 d5 61 3f
       0.52923524 0.95782435 0.72372645 0.8821636
000150 4a 27 31 3f 63 01 64 3f 48 41 a3 3f 85 69 bd 3e
       0.69200575 0.89064616 1.2754297 0.36994568
000160 62 db 43 3f 0a 92 34 3f d1 7c 2c 3f a1 61 45 3f
       0.76506627 0.7053534 0.67377955 0.77102095
000170 d6 2e b9 3f 96 10 2b 3f f2 34 78 3f 95 52 3d 3f
       1.4467418 0.66822183 0.9695579 0.73954135
000180 d4 8e 82 3f 53 ce 76 3f fd 34 23 3f 9d 45 bc 3f
       1.0199838 0.96408576 0.6375273 1.4708744
000190 29 54 3f 3f 0e a2 3f 3f 80 2e 5a 3f 34 aa 2f 3f
       0.74737793 0.7485665 0.85227203 0.68619084
0001a0 1f 28 95 3f a3 37 a0 3f 40 2b 1c 3f 5d 6b 53 3f
       1.1652869 1.2516979 0.61003494 0.825857
0001b0 58 a6 88 3f 75 01 72 3f 40 9f 23 3f ff 66 8e 3f
       1.0675764 0.94533473 0.6391487 1.1125182
0001c0 13 d6 6a 3f 1c a4 57 3f 2e e6 bd 3f f6 fc 11 3f
       0.917329 0.84234786 1.483587 0.5702661
0001d0 dc 85 64 3f 87 16 07 3f 02 fd 15 3f e9 35 7f 3f
       0.89266753 0.5276875 0.58589184 0.99691635
0001e0 6b 1e 2e 3f 62 b9 92 3f 03 b2 68 3f a3 e1 c1 3f
       0.68015164 1.1462824 0.90896624 1.5146984
0001f0 f2 c5 ff 3e d5 44 8b 3f 99 88 a1 3f 35 68 44 3f
       0.49955708 1.0880381 1.2619811 0.7672151
000200 35 52 20 3f 97 ce d8 3e 5f a7 42 3f 6e 76 20 3f
       0.6262544 0.42345116 0.7603664 0.6268071
000210 79 96 3e 3f ce e9 eb 3e 94 ea af 3f ae 76 15 3f
       0.74448353 0.46076816 1.3743463 0.58384216
000220 d0 30 6d 3f f0 83 11 3f 98 c7 3e 3f 57 ef 94 3f
       0.92652607 0.56841946 0.74523306 1.1635541
000230 7c 7f 94 3f 55 9d 7d 3f f9 62 11 3f 47 3d 68 3f
       1.1601405 0.99068195 0.56791645 0.907185
000240 e8 f0 39 3f 33 8b 41 3f af f9 20 3f c4 91 1b 3f
       0.7263322 0.75603026 0.62880987 0.60769296
000250 5f 39 b6 3f e9 be a3 3f fc a4 43 3f 6f 3d 58 3f
       1.4236258 1.2792636 0.7642362 0.8446874
000260 87 f9 8f 3f 4e 7b 52 3f 40 c2 2f 3f 3f 04 46 3f
       1.1248025 0.822194 0.68655777 0.7735023
000270 f0 f7 d5 3e 65 17 92 3f f1 c5 aa 3f 8c 9d 6e 3f
       0.41790724 1.141339 1.3341657 0.9320915
000280 aa 68 23 3f 0d 81 8a 3f 72 72 1e 3e 0c 7e 17 3f
       0.6383158 1.0820633 0.15473345 0.5917671
000290 a1 d3 12 3f c7 a6 3b 3f 00 68 0b 3f 0d cd 85 3f
       0.5735417 0.7330136 0.54455566 1.0453202
0002a0 2c 7a 4d 3f 68 cb 33 3f 05 a2 16 3f e5 c6 68 3f
       0.80264544 0.7023225 0.5884097 0.9092849
0002b0 fc bc ea 3e 60 b3 22 3f 4e a6 97 3f 71 c1 19 3f
       0.4584731 0.63554955 1.1847627 0.60060793
0002c0 3a d4 0d 3f 86 6e 19 3f 6c 5d 28 3f 37 6c 20 3f
       0.5540196 0.5993427 0.6576755 0.6266512
0002d0 3a 50 2e 3f c4 67 28 3f 8a 63 5b 3f 85 10 7b 3f
       0.68091166 0.65783334 0.8569876 0.9807208
0002e0 47 8c 31 3f 59 29 51 3f a6 14 3e 3f a7 63 8d 3e
       0.6935467 0.81703717 0.74250257 0.2761509
0002f0 1f 22 18 3f da cf 0e 3f ec 0b 0d 3f 6a 0c af 3f
       0.59427065 0.55785906 0.55096316 1.3675663
000300 c1 67 18 3f 99 00 53 3f 04 4e 40 3f 3d 89 62 3f
       0.59533316 0.82422787 0.7511904 0.8849066
000310 a2 e8 49 3f 40 51 22 3f 3f 65 40 3f b1 c2 49 3f
       0.78870595 0.6340523 0.7515449 0.788127
000320 aa 86 93 3f 9e 6a 49 3f 3c c7 7c 3f d0 37 80 3f
       1.1525471 0.7867831 0.9874151 1.0017033
000330 dd 77 ce 3f da 84 82 3f ba d1 67 3f 3b 3b 5b 3f
       1.6130329 1.0196793 0.9055439 0.85637254
000340 79 3e 79 3f fe e6 02 3f 7a 4e 2b 3f 6a af 5c 3f
       0.9736095 0.51133716 0.6691662 0.8620516
000350 0c 30 cc 3e 00 9f 96 3f 2a 8d 15 3f 20 fb 02 3f
       0.39880407 1.1767273 0.58418524 0.51164436
000360 71 6c 73 3f cc 99 5c 3f 40 24 53 3f ad 66 a6 3f
       0.95087343 0.86172175 0.8247719 1.3000084
000370 40 33 69 3f ba 3e ab 3f 89 57 91 3f f9 97 34 3f
       0.91093826 1.3378518 1.1354839 0.7054439
000380 fa de a6 3f e3 f6 52 3f 99 e4 70 3f a0 c6 83 3f
       1.3036797 0.8240797 0.9409881 1.029499
000390 20 88 11 3f 6b 47 a7 3f cc f4 a6 3f cd 01 3d 3f
       0.56848335 1.306867 1.3043456 0.7383087
0003a0 62 c4 5d 3f 32 25 30 3f 74 62 27 3f aa 94 97 3f
       0.8662778 0.68806756 0.653846 1.1842244
0003b0 67 f6 7c 3f 67 a2 e4 3e 52 6c a1 3f 61 1b 29 3f
       0.9881348 0.44655153 1.2611182 0.660574
0003c0 f2 fd b7 3f 9e a9 85 3f 3e 38 83 3f 24 f9 bd 3f
       1.4374373 1.0442388 1.0251539 1.4841657
0003d0 d2 e5 a5 3f 86 4b 24 3f 0a fa 61 3f 63 6e 8e 3f
       1.296076 0.6417774 0.88272154 1.1127437
0003e0 38 87 b4 3f 0c f5 43 3e 0d 55 9d 3f 81 35 c1 3f
       1.4103765 0.19136447 1.229158 1.5094453
0003f0 64 f3 82 3f 4b 80 ce 3e d1 a8 8d 3f 5e f7 6b 3f
       1.0230527 0.40332255 1.1067144 0.9217433

bn1.bias f4 [256]
000000 8b 2f c6 be 8d bc 3f bf d2 bc f5 be 6c 56 04 bf
       -0.38708147 -0.7489708 -0.4799562 -0.5169437
000010 19 ab c4 be 68 e4 3e bf ab d0 10 bf dc d4 3c bf
       -0.38411787 -0.7456727 -0.565684 -0.737623
000020 88 ed 27 bf 2a bc 18 bf 87 e2 36 bf 5e b9 31 bf
       -0.6559682 -0.59662116 -0.71439403 -0.6942347
000030 79 16 fe be 6c 82 06 bf 0d a3 c2 be 70 92 21 bf
       -0.4962652 -0.5254276 -0.38015023 -0.6311407
000040 5a 7d 35 bf 92 b6 e5 be 2b 42 05 bf a2 cb 8d 3e
       -0.70894396 -0.44865853 -0.5205409 0.27694422
000050 14 0c 0e bf c2 3e e7 be fc b0 c5 be 7d d7 e7 be
       -0.5548718 -0.45165068 -0.3861159 -0.45281592
000060 c9 44 17 bf ea 03 38 bf 29 b6 ec 3e 99 e0 ac be
       -0.5908933 -0.7188097 0.46232727 -0.33765104
000070 d5 12 df be 31 dd 24 bf bb 58 bc be 38 5b cb be
       -0.43569055 -0.6440001 -0.36786446 -0.39718032
000080 8b 6f 96 be 80 d0 da be 18 b9 06 bf 9c 99 a8 be
       -0.29381976 -0.42737198 -0.5262618 -0.32929695
000090 21 d4 5d bf 63 de 31 bf ae cd e9 be c4 64 fa bd
       -0.8665181 -0.6947996 -0.45664734 -0.12226251
0000a0 94 8b 95 be 7b a9 2d bf 60 17 cb be 1f 60 2e bf
       -0.29208052 -0.6783673 -0.3966627 -0.6811542
0000b0 b9 06 02 bf 4f 8f 94 be fb 3c 11 bf 29 58 31 bf
       -0.5079151 -0.29015586 -0.56733674 -0.69275147
0000c0 d7 64 20 bf 63 7b 82 be ed 88 d4 be 68 ee 1f bf
       -0.6265387 -0.25484762 -0.41510716 -0.62473154
0000d0 71 36 3e bd 10 b2 d1 be d5 93 39 3e 9b f5 2d bf
       -0.046438638 -0.40956163 0.181228 -0.6795289
0000e0 f9 5b 28 bf ef 4b 45 bf 1e 9c 1e bf 23 eb c7 be
       -0.6576534 -0.7706899 -0.61956966 -0.39046583
0000f0 a3 b5 b3 bd 5e 9f 20 bf c9 ed 07 bf ef 61 a5 be
       -0.08774879 -0.62743175 -0.53097206 -0.3230128
000100 70 f3 ad be d7 d4 06 bf 9a 7c 02 bf 20 57 0d bf
       -0.3397479 -0.5266852 -0.50971377 -0.5521107
000110 6f d2 97 be de ed 62 bd 5c 41 d2 be 3f a2 1a bf
       -0.29652736 -0.05540263 -0.4106549 -0.6040382
000120 53 b9 41 bf 19 e9 35 bf 72 25 d5 be 46 ef 3a be
       -0.7567341 -0.71058804 -0.4163013 -0.18255338
000130 43 e6 09 bf 38 ae 34 bf de b7 1b bf 84 fb 1c bf
       -0.53866976 -0.70578337 -0.60827434 -0.6132128
000140 a4 fa 34 bf 74 46 12 bf a0 01 14 bf 8c a0 47 bf
       -0.7069495 -0.5713875 -0.5781498 -0.7797935
000150 e4 9b 21 bf 1b 21 02 bf b8 4c 25 be 7b 43 24 bf
       -0.63128495 -0.50831765 -0.16142547 -0.6416547
000160 17 5d 11 bf b1 93 54 bf bc f0 16 bf a7 96 04 bf
       -0.5678267 -0.8303786 -0.5896108 -0.5179238
000170 c6 a6 3a bd 8d da 1d bf b3 07 d4 be 08 a8 df be
       -0.045569204 -0.6166161 -0.41412124 -0.43682885
000180 dc 8e a9 be f3 4f 00 bf a7 3d 21 bf 8c b7 af be
       -0.33116806 -0.5012199 -0.629847 -0.34319723
000190 e7 e7 2e bf 85 71 19 bf 82 cc d4 be 3b 59 b6 be
       -0.68322605 -0.5993884 -0.41562277 -0.35614952
0001a0 c9 fd d7 be be 15 c3 be d0 78 2d bf 77 e4 57 bd
       -0.4218581 -0.38102525 -0.6776247 -0.052708115
0001b0 b6 ea 84 bd 86 5a 1a bf 33 f2 45 bf 8f 74 01 be
       -0.0649008 -0.6029438 -0.7732269 -0.1264212
0001c0 49 05 af be da c0 0d bf c3 71 e2 be c4 be 1b bf
       -0.3418372 -0.55372393 -0.44227418 -0.6083796
0001d0 be fd 18 bf 31 ca 11 bf 11 99 24 bf cb 7f fa be
       -0.5976218 -0.56949145 -0.6429606 -0.48925623
0001e0 43 78 31 bf f4 e5 94 be f6 77 f1 be c7 b9 c3 bd
       -0.6932413 -0.2908169 -0.47161835 -0.095569186
0001f0 a4 2d 56 bf 59 c3 e5 bd 3a 1b e4 3d 98 f2 09 bf
       -0.8366339 -0.112189 0.111380056 -0.53885794
000200 8e b1 1d bf 3e 9b 38 bf 89 86 33 bf 9f ec 24 bf
       -0.6159905 -0.7211188 -0.7012716 -0.64423555
000210 43 73 e9 be f3 bc 53 bf ee e0 fc 3d 36 cf 16 bf
       -0.4559575 -0.8271019 0.123475894 -0.5890993
000220 53 07 fb be 3c 94 36 bf 71 94 22 bf 0c e3 88 be
       -0.49029025 -0.7131994 -0.63507754 -0.26735723
000230 84 75 14 be e0 69 09 bf 49 cf 3d bf a5 8e c1 be
       -0.14497954 -0.5367718 -0.7414442 -0.37804142
000240 46 5e 1b bf 1c b4 12 bf 63 9f 2c bf d4 0d 3a bf
       -0.60690725 -0.57306075 -0.67430705 -0.7267735
000250 65 6e f7 be 9d 2e 6f be 78 e4 c5 be 7e 73 25 bf
       -0.48326412 -0.23357625 -0.3865087 -0.6462935
000260 97 d5 d3 be e2 5f c2 be 39 77 11 bf ed 4d 1c bf
       -0.41373894 -0.37963778 -0.56822544 -0.61056405
000270 11 66 55 bf be 11 18 bf 02 17 31 3e f0 11 2a bf
       -0.83358866 -0.5940207 0.17293933 -0.6643362
000280 a3 af 21 bf 41 5d 5d be ae 8d 35 bf cf 77 1c bf
       -0.63158625 -0.21617605 -0.7091931 -0.61120313
000290 f0 ad 38 bf d9 b2 13 bf 8c 97 56 bf e1 05 23 be
       -0.7214041 -0.57694775 -0.8382499 -0.15920211
0002a0 29 62 41 be ea 38 d9 be c4 9e 36 bf 38 a9 11 bf
       -0.18885101 -0.42426234 -0.7133601 -0.5689883
0002b0 48 14 28 bf cd d7 3c bf 1a e1 5f be 46 3e 24 bf
       -0.65655947 -0.73766786 -0.21863213 -0.6415752
0002c0 a5 62 24 bf 80 3f 51 bf 3f 61 06 bf b9 f0 16 bf
       -0.6421302 -0.8173752 -0.52492136 -0.58961064
0002d0 5b a5 22 bf 37 2a 37 bf ac 72 d7 be a9 9c b0 be
       -0.6353356 -0.7154879 -0.42079675 -0.34494522
0002e0 50 8b 3a bf e4 ba 2e bf a0 61 1e bf 52 f6 58 bf
       -0.72868824 -0.6825392 -0.61867714 -0.84750855
0002f0 08 de 22 bf cf be 1a bf b5 5d 42 bf 6b 61 35 3d
       -0.6362004 -0.604474 -0.75924236 0.04428236
000300 0b 1a 37 bf a4 32 00 bf fd 9f e6 be 7e 7b 2c bf
       -0.71524113 -0.5007727 -0.45043936 -0.67375934
000310 f1 a0 23 bf 4a ab 29 bf e1 b5 20 bf ee c4 1e bf
       -0.6391745 -0.6627699 -0.62777525 -0.6201924
000320 bb fb ca 3d 15 4a 02 bf 34 0a d5 be d6 0f cc be
       0.09911295 -0.5089429 -0.41609347 -0.39855832
000330 bc b1 08 3d eb eb f5 be c7 c8 29 bf 7b 1e ed be
       0.033372626 -0.48031554 -0.66321987 -0.46312317
000340 75 57 fe be 0a 69 54 bf c0 ed 23 bf bb 91 bb be
       -0.496761 -0.82972777 -0.6403465 -0.3663462
000350 50 7f 50 bf 66 23 7f be c1 76 20 bf 83 16 38 bf
       -0.81444263 -0.24915847 -0.62681204 -0.7190935
000360 c4 94 a3 bd a0 88 39 bf 10 48 c8 be 8f d0 90 be
       -0.07987359 -0.724741 -0.3911748 -0.28284118
000370 b4 47 dc be bb e3 69 3e 18 d4 e8 be 65 fc 38 bf
       -0.43023455 0.22840779 -0.45474315 -0.72260123
000380 7a b2 ae be 37 3b 34 bf c0 29 3f bf c5 20 e2 be
       -0.34120542 -0.70402855 -0.7467308 -0.44165626
000390 26 af 1c bf ed 90 66 3d 68 63 6d be 91 35 29 bf
       -0.61204755 0.056290556 -0.23182452 -0.6609736
0003a0 9e 6b 19 bf e0 24 2f bf 65 8a 2e bf 13 b0 0d be
       -0.59929836 -0.6841564 -0.68179923 -0.13836698
0003b0 0e 60 01 bf 69 ac 1d bf 1e 34 bc be 70 bc 3d bf
       -0.5053719 -0.615912 -0.36758512 -0.7411566
0003c0 d1 9d f5 3d 46 00 6e be 2d 97 88 be 7f 0d c5 3d
       0.11992992 -0.23242292 -0.26677838 0.09621715
0003d0 36 ae 88 3e 1f c7 2c bf 79 dc 08 bf 1b 85 0d bf
       0.26695412 -0.67491335 -0.53461415 -0.5528123
0003e0 0b bb b3 be b9 1e 42 bf 17 25 c3 be 1a 4e 12 3e
       -0.3510364 -0.7582813 -0.38114235 0.14287606
0003f0 9b d6 4f be e9 69 16 bf 89 35 59 be 00 77 ea be
       -0.20296709 -0.58755356 -0.21211828 -0.45793915

bn1.running_mean f4 [256]
000000 35 bd a9 c0 9a a0 00 c1 2a 2e b6 c0 84 e2 9f c1
       -5.3043466 -8.039209 -5.6931353 -19.985603
000010 e2 b2 4c 40 f3 33 29 3f 67 40 11 c0 8f 03 77 c0
       3.1984181 0.66094893 -2.2695558 -3.8595922
000020 02 bf a4 3e 71 d2 ee 40 7b d4 0f 40 5b 8a 1e 40
       0.32176977 7.4631886 2.2473438 2.4771945
000030 6b 11 87 c0 31 96 aa 40 ef e1 05 41 85 1d 1f 3f
       -4.220876 5.330834 8.36766 0.6215442
000040 2e 49 9f c0 d4 4f dc bf 15 d9 24 41 89 ec 0c c1
       -4.977683 -1.7211862 10.302999 -8.807748
000050 aa 7f 6d c1 d3 43 6e 40 ae 0a 49 c1 65 4d 76 40
       -14.843668 3.7228897 -12.565107 3.8484738
000060 17 ed 13 c1 a0 8d 47 c0 e1 e3 47 c1 6e 84 2d 3f
       -9.245383 -3.118019 -12.4931345 0.67780197
000070 73 b5 2a 40 6f 3a a1 3f 48 57 68 c0 ba e6 49 40
       2.6673248 1.2595958 -3.6303272 3.1547074
000080 b2 ab fa c0 f7 e8 98 40 38 60 5c c0 3f bd e5 40
       -7.833459 4.778438 -3.4433727 7.1793513
000090 70 2d 2a c1 01 23 76 3f 4e 01 a4 c1 bb fa 88 40
       -10.636093 0.9614716 -20.500637 4.2806067
0000a0 c5 f3 3d 41 99 8f 8c 40 f9 50 2f 41 8c 83 12 c1
       11.872014 4.392529 10.957269 -9.157116
0000b0 bd 59 df 3f 55 9d 22 3f 90 0e 76 c0 24 f1 2a c1
       1.7449261 0.6352132 -3.8446388 -10.683872
0000c0 3d 54 0a 40 e4 fd 9b 40 e3 de 92 bf 8a 0d 60 bf
       2.1613915 4.8747425 -1.147427 -0.8752066
0000d0 67 5d 08 bf 1f 77 01 41 5e 61 c5 40 72 cf 06 c1
       -0.5326752 8.091582 6.1681356 -8.425646
0000e0 89 fb 01 41 fc b3 9a c0 88 5d 35 c1 35 2c 2f c1
       8.12391 -4.8344707 -11.335335 -10.948293
0000f0 6e 6c 94 c0 46 d1 17 3f 8a 9c 6b 41 48 c4 d9 c0
       -4.638236 0.593037 14.725718 -6.80521
000100 e0 08 9e c0 1b df 82 c0 e1 97 53 41 0d a1 f6 be
       -4.9385834 -4.0897346 13.22458 -0.48169747
000110 51 e0 f8 40 67 72 e9 c0 b6 90 41 40 b8 50 33 41
       7.7773824 -7.295215 3.0244575 11.207207
000120 eb bc 59 40 da 33 12 40 2c 06 2c be 49 23 2d be
       3.4021556 2.2844148 -0.1679923 -0.16907991
000130 a6 37 93 c1 50 3c be c0 b7 b3 36 41 20 25 77 40
       -18.402172 -5.9448624 11.418876 3.861641
000140 81 70 13 c1 fd 42 81 bf e5 50 53 be 64 62 82 40
       -9.214967 -1.0098568 -0.20636328 4.0745106
000150 98 74 4f c1 b8 3b ac c1 77 60 c5 bf ff 5a 0b c1
       -12.965965 -21.52916 -1.5420064 -8.709716
000160 fc 3d e5 c0 5f 52 8c be 17 01 c5 40 85 88 07 40
       -7.1638165 -0.27406594 6.156383 2.1177075
000170 5f cb 53 c1 eb 6e 8d 40 66 07 d9 3f 39 82 b5 3d
       -13.237151 4.41979 1.6955383 0.088627286
000180 5f 54 96 c0 5b 58 18 3f 76 bd 9b c0 68 ee d0 3f
       -4.697799 0.5950982 -4.8668776 1.6322756
000190 d5 88 04 c1 7a d6 f7 c0 0d 9f 91 bf 07 cd af 40
       -8.283406 -7.744931 -1.1376663 5.4937778
0001a0 65 4b 35 40 f8 c0 a5 40 ea 7d ce c0 10 bc 66 c1
       2.8327267 5.1798058 -6.4528704 -14.420914
0001b0 10 fb fc c0 a5 32 05 c0 30 24 5b c1 33 b2 97 41
       -7.9056473 -2.081216 -13.696335 18.962011
0001c0 1d 6c f4 c0 b4 d7 17 40 c6 6f 2f c0 c7 ec 01 c1
       -7.6381974 2.3725405 -2.741197 -8.120307
0001d0 11 93 fd c0 a3 ac 61 40 ee e0 19 c1 23 18 bc 40
       -7.9242024 3.526162 -9.617414 5.8779464
0001e0 bf bc 64 40 5b de 15 c0 56 30 78 c0 3a da e9 c0
       3.5740201 -2.3416965 -3.8779502 -7.307889
0001f0 d5 bc 16 c1 1d e8 c5 40 25 b9 f7 40 ef a8 89 c1
       -9.421102 6.184584 7.7413507 -17.207487
000200 a1 44 6d 40 e5 5b e9 c0 1a 47 c5 c0 b9 b6 4e 41
       3.7073138 -7.2924676 -6.1649294 12.91961
000210 4b 9e 53 bf be 02 7c c0 1d 9a 59 41 dc b7 46 41
       -0.8266341 -3.9376674 13.600125 12.419888
000220 c0 1b e2 c0 04 45 00 c1 37 91 64 bf f8 f0 af 40
       -7.0658875 -8.0168495 -0.8928408 5.498165
000230 f1 07 68 3d 50 92 05 c1 f9 5b 51 c0 57 49 96 c0
       0.0566482 -8.348221 -3.2712386 -4.6964526
000240 ae 73 b3 3f 6e 8e f7 bf 6b fc 7e c1 aa cf 1a c1
       1.4019678 -1.9340341 -15.9366255 -9.675699
000250 d3 44 5c c0 3c c9 21 41 1f 62 a1 c0 40 88 f3 3f
       -3.4417007 10.1116295 -5.0432277 1.9025955
000260 10 d7 74 c0 21 3c 5d 3e 6d cd ab c0 28 a3 13 c1
       -3.8256264 0.21604969 -5.3688264 -9.227333
000270 d1 72 c5 c0 ce ab c4 3b 2d 4b f3 3f 53 31 3b be
       -6.1702657 0.006001926 1.9007317 -0.18280534
000280 70 d4 1b 41 5e c0 87 40 80 0a 88 40 71 1d c0 c0
       9.739365 4.2422323 4.2512817 -6.003594
000290 ab ce a1 40 ee 21 82 bf 16 59 7c c0 80 5e 47 be
       5.056478 -1.0166605 -3.9429374 -0.19469643
0002a0 33 43 06 c0 f7 63 a3 bf 83 ed 50 c1 02 15 b8 40
       -2.0978515 -1.2764882 -13.057986 5.7525644
0002b0 1a a7 fd c0 c7 f7 6f c0 1c 8d c2 bf e3 2d 6e 41
       -7.926648 -3.7494981 -1.5199313 14.886203
0002c0 c5 d4 d5 40 59 0f 87 c0 28 0b 61 40 fe 2a 77 c1
       6.682223 -4.2206235 3.516306 -15.447996
0002d0 72 60 e4 3e 9f 00 98 40 9e f5 a1 c0 97 db 22 41
       0.44604832 4.750076 -5.0612326 10.178611
0002e0 18 2e d1 bf 69 a2 70 c0 c0 d1 05 3f e5 d0 bd c0
       -1.6342192 -3.7599127 0.5227318 -5.93175
0002f0 a7 69 f0 c0 ba 61 73 41 33 35 c9 3f 4a 0b 0c c0
       -7.512897 15.211359 1.571936 -2.188189
000300 64 9d 01 c1 85 a2 0c c0 a9 21 4a 40 4a 87 1c bf
       -8.100925 -2.1974194 3.1583045 -0.61143935
000310 a0 84 40 c0 ce d1 06 41 1d d4 44 c1 c4 a3 d1 40
       -3.0080948 8.426222 -12.301785 6.551241
000320 68 9a cf bf f7 21 9f 3e 8e 89 03 c1 7d ea 42 40
       -1.6218996 0.310806 -8.221083 3.045562
000330 ce ad d3 c0 52 85 4c 40 f4 fd 04 40 6b 42 d8 40
       -6.6149664 3.1956372 2.078 6.7581077
000340 60 26 af c1 72 af 26 c1 04 8a 8b c0 b0 da 3a 41
       -21.893738 -10.417833 -4.3605976 11.6783905
000350 2d f4 1e c1 7e 59 72 40 98 ef d8 40 85 39 82 40
       -9.934613 3.7867122 6.7792473 4.0695214
000360 f5 81 b4 40 a7 e8 ab 40 a5 0b 1e c0 1f e7 9c 40
       5.640864 5.37215 -2.4694607 4.903213
000370 f7 3d 8b 40 b8 1a 87 40 a2 83 86 bf 2f 08 8e 40
       4.351314 4.2220116 -1.0508921 4.438499
000380 1f cb ae c0 14 9e 33 40 e3 0a f2 40 85 b3 48 40
       -5.462295 2.8065233 7.563829 3.135957
000390 93 01 bb 40 c0 c3 b2 3f eb f9 29 41 18 01 f5 3e
       5.843942 1.3965988 10.623515 0.47852397
0003a0 2c 46 31 c0 fa 0c 85 41 17 7f 76 40 fc bd b1 40
       -2.769908 16.631336 3.851507 5.5544415
0003b0 44 35 8c 41 c5 d3 ba 40 86 a1 74 c1 2b 65 47 c0
       17.526009 5.838351 -15.289434 -3.1155498
0003c0 91 2b d4 3f 0d fd 34 bf 07 d3 8e 40 48 32 30 be
       1.6575795 -0.70698625 4.46326 -0.17206681
0003d0 fd 46 6d 41 5d 96 15 c1 fa 9e 93 3f c7 85 87 3f
       14.829831 -9.34921 1.1532891 1.0587701
0003e0 cd 0f 54 c0 af 38 90 3f 87 72 03 41 bc 99 9e c0
       -3.3134644 1.1267298 8.215461 -4.9562664
0003f0 20 66 e2 be 78 7d 0d be 7f 5e af c0 9e d6 33 41
       -0.4421854 -0.13817394 -5.480285 11.239897

bn1.running_var f4 [256]
000000 dc 88 e4 42 4b f1 c3 42 91 a6 f5 43 47 87 af 42
       114.2673 97.971275 491.3013 87.76421
000010 9f 5a 97 42 dd 3a 80 43 00 38 15 43 17 7f fd 42
       75.676994 256.45987 149.21875 126.74822
000020 56 0d 3f 43 d2 3e 38 43 90 7a 9d 42 3e 65 cd 42
       191.0521 184.24539 78.73938 102.69774
000030 b8 1b f6 42 4a 9b a8 42 01 41 3c 43 c7 55 3e 43
       123.05414 84.3033 188.25392 190.33507
000040 54 e5 e0 42 8c f7 6a 43 b9 3d 9f 42 8e 7c 6e 42
       112.44791 234.96698 79.62055 59.621635
000050 5d 75 3e 43 29 cf 55 43 71 56 12 43 ca 02 55 43
       190.45845 213.80922 146.33766 213.0109
000060 60 4b 9c 42 27 28 cd 42 28 61 85 42 82 08 a2 42
       78.14722 102.57842 66.68976 81.01662
000070 56 da 5b 43 08 19 49 43 dd 65 8b 42 4d da 7d 43
       219.85287 201.09778 69.69895 253.85274
000080 88 23 ab 42 30 7a da 42 5f f9 1b 43 c1 c1 ad 42
       85.5694 109.23865 155.9741 86.878426
000090 84 39 fc 42 19 77 28 43 ff 0b 2b 42 4b c1 41 43
       126.112335 168.46523 42.761715 193.75505
0000a0 17 55 8e 42 fb e0 a1 43 d5 40 85 42 f1 01 9d 42
       71.16619 323.75766 66.626625 78.50379
0000b0 03 3c ff 42 18 74 bf 42 23 03 a9 42 96 4b 2c 43
       127.61721 95.726746 84.50613 172.29526
0000c0 08 58 6c 42 77 90 d4 42 d6 b0 06 43 2c 64 32 43
       59.085968 106.28216 134.69077 178.3913
0000d0 3d 84 6d 43 26 71 c3 42 aa b1 ac 42 88 65 68 42
       237.51656 97.72099 86.347 58.09915
0000e0 97 fe 19 43 9c 7b 4c 42 77 86 b1 42 75 eb 03 43
       153.99449 51.120712 88.76263 131.91975
0000f0 e2 f1 0e 42 e1 ec 67 43 fc 58 fe 42 24 99 cd 42
       35.736214 231.92531 127.1738 102.7991
000100 d3 88 82 43 cb e8 fd 42 52 df 10 42 e3 34 b3 43
       261.06894 126.95467 36.218086 358.41318
000110 91 92 ca 42 a8 21 17 42 4e 86 13 43 2b cc 1a 43
       101.28626 37.782867 147.52463 154.79753
000120 6f f5 ec 42 4a bb 2e 43 3f 0a 5f 43 c5 94 46 41
       118.47936 174.7316 223.04002 12.411321
000130 02 a6 6e 42 21 1a 43 43 c6 15 c5 42 d7 a2 58 43
       59.662117 195.10207 98.54253 216.6361
000140 7c d6 f4 42 17 30 36 43 a2 80 48 43 a6 c9 e3 42
       122.418915 182.18785 200.50247 113.893845
000150 c8 d9 21 43 db 91 7e 43 dd 61 b5 42 65 88 42 43
       161.85071 254.56975 90.69114 194.53279
000160 cc a1 f6 41 19 9c 0d 43 1e 8b 0b 43 9d ad f6 42
       30.829002 141.60976 139.54343 123.33909
000170 eb 0e 7d 42 a4 6d 42 43 de 42 cd 42 7d 5e 28 43
       63.26457 194.42828 102.6306 168.3691
000180 d3 f6 29 43 0a 46 d3 42 80 df 06 43 98 fe bc 42
       169.96416 105.636795 134.87305 94.49725
000190 6a c8 fb 42 58 f2 cf 42 81 56 e8 42 58 cd a3 42
       125.89143 103.97333 116.16895 81.90106
0001a0 87 65 66 43 20 52 92 42 20 eb 0b 43 fe 15 e8 42
       230.39659 73.1604 139.91846 116.04295
0001b0 59 6b 6a 43 30 f3 4e 43 61 b5 71 42 59 cb 4c 42
       234.41933 206.94995 60.427128 51.19858
0001c0 c1 e6 91 43 55 3f 46 43 14 2d c1 42 7d 71 91 43
       291.80276 198.24739 96.58804 290.88663
0001d0 e5 28 19 43 0e 57 00 43 92 0e 49 43 44 5d 8e 42
       153.15974 128.34006 201.05692 71.18216
0001e0 b9 b1 34 43 99 af 13 43 d4 b0 08 43 e2 50 19 43
       180.69423 147.68593 136.69073 153.31595
0001f0 32 06 0f 43 df 42 0b 43 08 3b 2e 43 9b 1f 20 43
       143.0242 139.26122 174.23059 160.12346
000200 25 58 2f 43 f5 dc 94 42 b1 0e c7 42 89 00 23 43
       175.34431 74.43156 99.528694 163.00209
000210 4c 6b 57 43 f7 34 3b 43 9d b0 03 43 de d2 0d 43
       215.41913 187.2069 131.6899 141.8237
000220 1b c6 12 43 49 cc 0c 43 41 02 26 43 f4 5a ae 42
       146.77385 140.79799 166.0088 87.17764
000230 71 12 95 41 7d a4 f9 42 10 24 7e 43 0f f2 2e 43
       18.634005 124.821266 254.14087 174.94554
000240 4e c8 45 43 ad ae 51 42 d9 7f f4 42 13 38 53 43
       197.78244 52.42058 122.2497 211.21904
000250 85 39 00 43 f9 36 f0 41 84 50 69 43 c6 95 50 43
       128.22469 30.026842 233.31451 208.58505
000260 c3 39 14 43 e1 ba 02 43 35 f4 f4 42 83 ff 26 42
       148.22563 130.73 122.47697 41.749523
000270 dc 3f e1 42 fc 8e c3 42 07 75 c0 42 1a 94 10 43
       112.624725 97.77927 96.22857 144.57852
000280 65 04 37 43 e3 af a5 42 f8 3c 26 44 34 6b 04 43
       183.01717 82.84353 664.95264 132.41876
000290 f8 3a d4 42 8d 6f 5f 43 3a be 11 43 79 4d a2 42
       106.11517 223.43575 145.74307 81.15131
0002a0 12 8f c8 42 54 b5 00 42 28 4d 8e 43 1a 8f 0b 43
       100.279434 32.17708 284.60278 139.55899
0002b0 94 de b5 42 4f 05 f2 42 f4 b0 18 43 a1 88 09 43
       90.93472 121.01037 152.69122 137.5337
0002c0 db ca fd 42 8a e9 fb 42 fd 0e 29 43 6c c7 55 42
       126.8962 125.95613 169.05855 53.444748
0002d0 c8 bf 4b 43 82 03 20 43 1c d2 26 43 58 b5 e8 42
       203.74915 160.0137 166.82074 116.35419
0002e0 3b 67 eb 42 3b 5f ed 42 4c 84 59 43 b2 6d 0e 43
       117.70162 118.686 217.51678 142.4285
0002f0 03 89 91 42 99 b7 09 43 fd 46 16 43 0c 2b 8e 42
       72.7676 137.71718 150.2773 71.084076
000300 e0 1a 40 43 25 7c f4 42 0f 22 fc 42 99 76 0f 43
       192.10498 122.24247 126.06652 143.46327
000310 fa 79 be 42 cc 19 61 43 9a 71 92 42 f7 d1 ca 42
       95.238235 225.10077 73.22188 101.41009
000320 3c 42 b1 42 4f 69 32 43 99 98 ac 42 65 40 53 43
       88.629364 178.41136 86.29804 211.25154
000330 58 87 df 42 c3 ec 03 43 c6 52 49 43 de 39 e1 42
       111.76434 131.92485 201.32333 112.61302
000340 0f e5 40 43 c5 47 12 43 4b 5f 19 43 26 9e f6 42
       192.89476 146.28035 153.37224 123.30888
000350 d0 41 6f 43 f9 c9 03 43 a9 8d 51 43 85 49 10 43
       239.25708 131.78896 209.55336 144.28719
000360 d9 f8 b5 42 17 7d 40 43 16 f4 15 43 c8 e0 80 42
       90.98603 192.48863 149.95346 64.439026
000370 36 cc 2f 43 37 f1 e5 42 72 47 1b 43 23 d3 24 43
       175.7977 114.97112 155.27908 164.82475
000380 70 2f 38 42 89 24 4c 43 a1 b8 28 43 0e c0 90 43
       46.046326 204.14272 168.7212 289.50043
000390 91 8a 1f 43 bf 9d 23 43 de b6 25 43 e4 ac 53 43
       159.54128 163.6162 165.71432 211.67535
0003a0 9d 34 f4 42 56 8c 96 42 1f 50 2a 43 43 57 d8 42
       122.10276 75.27409 170.31297 108.17043
0003b0 06 ef 3f 42 4f 16 ab 42 75 10 c0 42 9e f1 ab 42
       47.98342 85.54357 96.03214 85.97191
0003c0 4c 46 e9 40 f9 c7 b9 42 6c 37 06 43 a6 a6 c3 42
       7.289831 92.89057 134.21649 97.825485
0003d0 12 f2 7b 42 6a b6 b8 42 fd 65 53 43 24 ae 04 43
       62.986397 92.35628 211.39839 132.68024
0003e0 94 b0 31 43 49 1a ea 43 60 fc 48 43 57 8f 50 42
       177.68976 468.20535 200.98584 52.13998
0003f0 27 ba 5b 43 07 83 24 43 87 4a 3c 43 09 2f c0 42
       219.72716 164.51183 188.29112 96.091866

fc2.weight f4 [128, 256]
000000 a5 cb 02 3e bb bc 98 be 25 19 3e bd 2d ef ec 3e
       0.12772997 -0.2983149 -0.0464107 0.46276227
000010 82 f7 12 be 5c 6d 24 bd 67 0c d4 bd b0 e9 9e bd
       -0.14352229 -0.040143356 -0.10353928 -0.07759416
000020 d7 a6 78 3d eb 87 1e be 4e d7 06 bd 1b 21 5a 3e
       0.060705986 -0.15481536 -0.032920174 0.21301691
000030 a1 e7 08 be 5a 66 b0 be cb bb be be f8 30 02 be
       -0.1336961 -0.34453088 -0.3725265 -0.12713993
000040 46 d4 89 bd 8c 7f 97 be 4e 2b a7 be 1e 12 4a be
       -0.06729941 -0.29589498 -0.32650226 -0.19733474
000050 5c bc 33 be 48 d5 bb be 8f ff 83 3d 99 be 15 bd
       -0.17552322 -0.36686158 0.06445228 -0.03655872
000060 2c ad c8 bd 78 5f 5b 3d 07 fb 07 3f 18 7e 55 be
       -0.09798655 0.053557843 0.5311741 -0.20848882
000070 25 18 40 3e d7 69 c0 be 87 24 15 bc e0 57 d3 3c
       0.1875921 -0.3758075 -0.009102947 0.025798738
000080 3d 21 0c 3e 3c 02 6f 3e ce 1a bc be 2a d9 10 bf
       0.13684554 0.23340696 -0.367392 -0.56581366
000090 da af 84 3e 9b 96 ba bd 5f 6a 22 3f 24 68 1d 3e
       0.25915414 -0.09110757 0.6344356 0.15371758
0000a0 e4 6a fb be a2 ba cf bd 53 d5 f8 be 3a 6f 38 3d
       -0.4910499 -0.10143019 -0.48600253 0.04502795
0000b0 c4 90 cd be 63 19 7c 3d c6 5b a5 bd b9 5a d4 bd
       -0.4014951 0.06154765 -0.08074145 -0.103688665
0000c0 f2 b4 18 be 9a c1 16 bf 10 ae e0 bc 9e c0 2d be
       -0.14912775 -0.5888916 -0.02742675 -0.16968009
0000d0 7d 33 1b bd c5 27 2b bf eb 66 13 be 7d 59 cd 3d
       -0.0378909 -0.6685756 -0.14394729 0.10026834
0000e0 55 80 be bd 11 ec 9f be 55 63 1c 3e 39 2f e6 3e
       -0.09301821 -0.31234792 0.15272267 0.44957903
0000f0 6e 58 be 3e 6a 07 ee be e5 42 13 bf 1a cd a3 3e
       0.37176841 -0.4649003 -0.5752395 0.31992418
000100 53 7d 2e be 9e ca de bd db f1 81 3d d7 ff e6 bd
       -0.17039995 -0.1087849 0.063449584 -0.11279266
000110 91 bc c6 bd 58 61 48 bc 6c ed f4 be 34 ca 9a be
       -0.09703935 -0.01223024 -0.4783739 -0.30232394
000120 07 82 86 be 8c 6e 81 be 5d e1 e1 be 86 e2 b5 3b
       -0.26271078 -0.25279653 -0.4411725 0.0055506853
000130 d7 db c2 3e e6 a2 3a be 90 b4 a0 be 3b e5 6a be
       0.3805835 -0.18226203 -0.31387758 -0.22939007
000140 35 92 af bc f1 d6 c0 be 94 21 6b be 17 0a 73 be
       -0.021432022 -0.37663987 -0.22962028 -0.23734318
000150 07 b9 a4 3e e0 9b b2 3e 2c de 3e bf 86 0e 91 bd
       0.32172415 0.34884548 -0.7455776 -0.07082848
000160 4f f8 b0 3e 5c 03 c1 be 0e e9 71 be ce 45 d1 be
       0.34564444 -0.37697875 -0.2362406 -0.4087357
000170 6e b7 ca 3e db 69 da 3c 6a 94 a8 3c ae 20 ba 3e
       0.3959307 0.026661804 0.020578582 0.36353058
000180 a5 1a cb 3e f1 59 af be e6 5b 21 be 09 21 07 be
       0.39668766 -0.34248307 -0.15757713 -0.13196196
000190 1c bf 05 be 1f 84 8f 3e 6f 3c 02 bd 3a 80 f2 bd
       -0.13061184 0.28030488 -0.031795915 -0.118408635
0001a0 75 bf 8e bd 64 5e e0 be 35 7d 00 3e 25 49 3c 3e
       -0.06970111 -0.43822014 0.12547763 0.18387277
0001b0 32 3f 1c bd 23 da 17 3e 52 1f 84 3d 23 1e a2 be
       -0.038146205 0.14829306 0.064512864 -0.31663617
0001c0 80 4e 56 bd 63 28 23 be 70 63 23 be f4 40 00 bf
       -0.052320957 -0.15933375 -0.15955901 -0.5009911
0001d0 de bf 81 bd 2d 0e f9 bd a5 da c9 be 13 b5 02 be
       -0.06335424 -0.12160907 -0.39424625 -0.12764387
0001e0 1e 2f 62 be 85 e1 ad 3d ad c0 42 be 73 14 0e 3f
       -0.22088286 0.0849028 -0.19018812 0.55499953
0001f0 13 d5 2e 3e 92 e7 91 be b8 78 ed 3d ee 7d 5b 3e
       0.17073469 -0.28496987 0.11595291 0.21434757
000200 21 2c 10 3d 5f e6 03 3d 69 76 a6 3d 05 41 87 be
       0.035198335 0.03220212 0.08128054 -0.26416793
000210 5d 54 cc be 21 b3 ce bb bc 56 d7 be 07 3d e4 be
       -0.39908114 -0.006307975 -0.4205836 -0.4457781
000220 e8 29 23 3e d7 a5 0f bf 63 34 84 be 46 ff 11 bd
       0.15933955 -0.56112427 -0.25821218 -0.03564384
000230 42 45 16 3e b2 c8 29 3e dd e8 13 be 06 ac 98 bd
       0.14674857 0.16580465 -0.14444299 -0.07454686
000240 99 12 27 be c8 ca 9e be 2a 1a 8d 3e 2d 09 8e 3e
       -0.16315688 -0.31014085 0.27559024 0.27741376
000250 ae fa 07 3f 83 8c 4f be 90 a4 da bb 66 6f 7a be
       0.5311688 -0.20268445 -0.0066724494 -0.24456558
000260 53 ec f1 3d 8a ee 2b 3e 6f 17 62 be 0e 99 8f 3d
       0.118126534 0.16790214 -0.22079252 0.07011615
000270 ce a0 dc 3d 76 08 12 be 61 4b d6 3d 61 a9 64 bd
       0.107728586 -0.1426104 0.10463596 -0.055825595
000280 df 84 45 be 9b 93 54 3d 1b 9e 3a 3d d8 cc 3d be
       -0.19288968 0.05189858 0.045560937 -0.18535173
000290 29 e4 82 be 65 30 8f be 5a df 1a be 58 a7 89 3e
       -0.25564697 -0.2796661 -0.15124264 0.26885486
0002a0 ba aa b2 3e 1e 3e ab 3d e1 99 71 3e 34 0f c0 be
       0.3489588 0.08361457 0.23593856 -0.375116
0002b0 86 4a 82 3d b5 c6 43 be 20 39 48 3e 73 a5 62 be
       0.063618705 -0.1911877 0.19553041 -0.22133426
0002c0 2f fb b6 be 6a 11 55 3e ce fc b5 be cb 28 9f 3e
       -0.35738513 0.20807424 -0.35544437 0.3108581
0002d0 c8 4e a1 bd 9a b0 6e bd b8 0a 97 bd cc c5 eb bd
       -0.078763545 -0.05827389 -0.07375091 -0.11512336
0002e0 53 96 8c be cc f4 d4 bc e5 8d 11 be 13 a6 b1 3b
       -0.27458438 -0.025995634 -0.14214285 0.005421409
0002f0 56 c4 0b bc 8d ea 9f be 7a 5a af be f1 57 cb be
       -0.008530697 -0.31233636 -0.34248716 -0.3971553
000300 3a 75 94 be dc 68 e2 bd e7 9f c0 bd d2 e5 11 bd
       -0.28995687 -0.110551566 -0.09405499 -0.035619564
000310 d7 97 40 3e 3a 1d db be f4 8d 3b 3e 2b 85 10 bf
       0.18807922 -0.42795736 0.1831587 -0.564532
000320 9f 1a ff 3d 02 67 92 bc ae fd 62 3e 89 76 96 3d
       0.124562494 -0.017871384 0.22167084 0.073468275
000330 d9 aa e6 bd 78 ae 59 be a6 fa b3 be 72 83 8c be
       -0.11263055 -0.21257961 -0.35152167 -0.27444035
000340 3c cb ad 3e ad 0d 3e bd 9c 19 9d bd 73 61 91 3e
       0.33944118 -0.04639976 -0.076709 0.2839466
000350 44 ac 13 be 65 42 b3 be a7 be 71 be d5 41 79 be
       -0.14421183 -0.35011593 -0.23607884 -0.24341519
000360 05 3c 82 3e ed eb b1 be 03 9b 69 be 22 43 03 bf
       0.25436416 -0.3475031 -0.22813039 -0.5127431
000370 24 e9 3f bd 5f ea 0b bf 7e 39 d9 be c1 bb a7 bd
       -0.0468532 -0.54654497 -0.42426676 -0.08190108
000380 99 ce 0d bf 63 92 55 be 09 fe 44 be 93 94 8f bd
       -0.5539337 -0.20856623 -0.19237532 -0.0701076
000390 b2 cd bf 3d 3b 74 7b be ae ae e1 be f7 9d 8b be
       0.09365405 -0.24556057 -0.44078583 -0.27268955
0003a0 2a 8a af bd ce a8 9c 3d 48 61 e4 bd da 0f 66 3e
       -0.085712746 0.076493844 -0.111513674 0.22466984
0003b0 9c 27 14 be ca 43 17 be 4a b0 41 3f fe 6e ae bc
       -0.14468235 -0.14771953 0.7565962 -0.02129316
0003c0 15 43 76 bd e6 d2 fc bc 65 fd 40 be 2b 84 10 bf
       -0.06012257 -0.030862283 -0.18846662 -0.5645167
0003d0 36 9c d1 be 76 0c 61 3e a8 f7 ae be c4 19 28 bf
       -0.40939492 0.2197741 -0.34173322 -0.65664315
0003e0 52 5d 75 3e 97 c8 ad bd 34 b5 a0 be 0e 6d ac 3e
       0.2396138 -0.08485525 -0.31388247 0.33676952
0003f0 62 82 65 be 23 78 f7 bd 84 f0 db 3e 15 2e 6b be
       -0.22413018 -0.12083461 0.42956936 -0.22966798
