checkpoint_critic22.pth (torch_old, 164557 bytes, 9 tensors)

fcs1.weight f4 [256, 24]
0	0xbea3ca97	-0.319905
1	0xbe6494ca	-0.22322384
2	0xbb9020d9	-0.004398447
3	0x3be9c85b	0.00713448
4	0x3f30eece	0.6911439
5	0x3dbcc840	0.09217882
6	0x3c2ef6ac	0.010678928
7	0x3992ce7f	0.00028001142
8	0x3e002e12	0.12517574
9	0x3d88f0ac	0.066865295
10	0xbd0d5c79	-0.034512017
11	0x3b4c5b08	0.0031182189
12	0x3e193616	0.14962038
13	0xbc208224	-0.009796653
14	0x3a90d2c8	0.0011049146
15	0xbc39de72	-0.011344539
16	0x3e2509ba	0.16116992
17	0x3d6aea09	0.0573521
18	0xbc01eb80	-0.007929683
19	0xbbd1b613	-0.0063998788
20	0xbf8ad2d5	-1.0845591
21	0x3e7dc161	0.247808
22	0xbca72fb4	-0.020408489
23	0x3c80fbfc	0.015745156
24	0xbe263b7f	-0.16233633
25	0x3f15a405	0.584534
26	0x3cf8a38a	0.030351419
27	0x3d6b483b	0.05744193
28	0xbe053518	-0.13008535
29	0x3fde3ce0	1.7362328
30	0x3d852e96	0.06503026
31	0x3ce2e4c7	0.02769698
32	0xbdace32b	-0.08441766
33	0x3f2735b6	0.6531633
34	0x3b805cd0	0.003917314
35	0x3e31f5fa	0.17378989
36	0xbce176c2	-0.027522448
37	0x3f145180	0.5793686
38	0xbc00b6fd	-0.007856128
39	0x3e3cbc63	0.18431239
40	0xbeab4ff2	-0.3345943
41	0x3f58b4a2	0.84650624
42	0x3b95a0d2	0.0045662904
43	0x3e3e6c1f	0.18595932
44	0x3e1cf3c1	0.1532736
45	0xbec7f540	-0.39054298
46	0x3c6d9b09	0.014502295
47	0x3e526c61	0.20549156
48	0xbe860f59	-0.26183584
49	0x3e97b6cc	0.2963165
50	0xbd9072f3	-0.07053175
51	0xbe58dede	-0.21178767
52	0xbc8bb622	-0.017054621
53	0xbf4c09be	-0.79702365
54	0xbda965c3	-0.08271363
55	0xbe6a0b33	-0.22855835
56	0xbeadad24	-0.33921158
57	0x3e278e05	0.1636277
58	0x3e8f2939	0.27961138
59	0x3e6048c4	0.21902758
60	0x3ce2ce0c	0.027686141
61	0xbf2affcb	-0.6679656
62	0x3e8450cb	0.2584289
63	0x3e92ff2d	0.2871031
64	0xbedff82f	-0.43744037
65	0x3e8acea6	0.27110785
66	0x3c65504e	0.013996197
67	0x3eb285ad	0.34867612
68	0xbbf57974	-0.007491285
69	0x3e74ba8a	0.23899284
70	0x3c05ba39	0.008162075
71	0x3e9546ee	0.29155678
72	0xbd9094de	-0.07059644
73	0x3e553ebb	0.20824711
74	0xbd25e841	-0.040504698
75	0xbcf42fbc	-0.029807918
76	0xbdd308a1	-0.1030438
77	0x3e453e10	0.19261956
78	0xbb0ca3c4	-0.0021459917
79	0x3d7c0f7d	0.06153821
80	0x3e0a168c	0.13485163
81	0x3e2469ee	0.16056034
82	0xbc19ef7e	-0.009395478
83	0x3cb592a6	0.022164654
84	0xbec10f7b	-0.37707123
85	0x3f001f8a	0.50048125
86	0xbd195ca3	-0.03744186
87	0xbd009f9c	-0.031402215
88	0x3ef369e1	0.47541717
89	0x3e84e3b2	0.25954968
90	0x3d07624c	0.033052728
91	0xbd97eb56	-0.07417934
92	0xbf6a369d	-0.91489583
93	0x3e4de9ab	0.20108669
94	0x3cbe3031	0.023216339
95	0xbcfb05c5	-0.0306424
96	0xbe293234	-0.16523057
97	0xbc06de96	-0.00823178
98	0xbc8d5678	-0.017253146
99	0xbb9d4764	-0.00479977
100	0x3e3c345a	0.18379346
101	0xbf63ab46	-0.8893322
102	0x3a4df45e	0.0007856543
103	0x3c971cc9	0.018446343
104	0x3d4af015	0.049545366
105	0x3eab9ab3	0.33516464
106	0x3c80521c	0.015664153
107	0x3bbc5c5d	0.0057483152
108	0x3dedce37	0.11611598
109	0xbecabc5a	-0.39596826
110	0xbd1f471c	-0.038886175
111	0xbd16441d	-0.03668605
112	0x3e6f3b03	0.23362355
113	0x3f6be4e6	0.92146146
114	0xbd214b97	-0.03937873
115	0x3df54100	0.119752884
116	0xbe92f829	-0.28704956
117	0x3fa824f6	1.313628
118	0x3cdb8b5f	0.026799856
119	0x3d9d93f0	0.076942325
120	0x3eab1dc4	0.33421147
121	0x3da0a322	0.07843615
122	0x3c8659a5	0.016400168
123	0xbf0e2292	-0.555215
124	0x3dfdb777	0.12388509
125	0xbe2145f7	-0.15749346
126	0x3dded041	0.10879565
127	0xbf1f6701	-0.62266546
128	0x3e507f5c	0.20361084
129	0xbeba6e6d	-0.36412373
130	0xbd273a94	-0.04082735
131	0xbf0abc4c	-0.5419357
132	0xba5e2934	-0.00084747677
133	0x3efae1a0	0.49000263
134	0xbb6b7e6f	-0.0035933515
135	0xbf22ab10	-0.6354227
136	0x3e89f162	0.26941973
137	0xbf1dfbd6	-0.61712396
138	0x3c8f3389	0.017480629
139	0xbeb422b0	-0.35182714
140	0x3e061f4c	0.13097876
141	0xbf4ede52	-0.80807984
142	0x3d154a20	0.036447644
143	0xbea6e1bb	-0.32594094
144	0xbce6eabf	-0.028188108
145	0x3fc37cc2	1.5272448
146	0x3c020bdb	0.007937397
147	0x3c4a2e77	0.01234018
148	0x3d861c90	0.065484166
149	0x3e18ae48	0.14910233
150	0xbc0eed7f	-0.008723616
151	0xbd96d481	-0.07364751
152	0xbd930438	-0.07178539
153	0x3fd8027f	1.6875762
154	0xbd3eefcb	-0.046615403
155	0x3e0bdfd7	0.13659607
156	0x3db8d952	0.090258256
157	0x3f127a32	0.57217705
158	0xbb56f711	-0.0032801072
159	0x3e06d971	0.13168885
160	0xbdec167b	-0.11527725
161	0x3fc1cd1e	1.5140722
162	0x3d4d1476	0.05006834
163	0xbe00f334	-0.12592775
164	0x3f11d6a7	0.5696816
165	0xbd4c66b8	-0.049902648
166	0xbd492279	-0.04910514
167	0xbcced982	-0.0252502
168	0xbe6fb36a	-0.23408285
169	0xbf0b1243	-0.5432474
170	0x3d40cc21	0.047069672
171	0xbdd7a8a0	-0.105302095
172	0x3d9fe285	0.07806877
173	0xbe709855	-0.2349561
174	0xbcb1e2a0	-0.021714509
175	0xbe17a45c	-0.14808792
176	0xbdc6e043	-0.09710743
177	0xbf511209	-0.81668144
178	0xbbb3089d	-0.0054636733
179	0xbe0baa4d	-0.13639183
180	0x3d912c97	0.07088583
181	0x3e9ab492	0.3021589
182	0xbb298c4e	-0.0025870982
183	0xbda7a828	-0.0818637
184	0x3bc3d911	0.005976804
185	0xbf729204	-0.9475405
186	0xbc93cfc1	-0.0180434
187	0xbef0c240	-0.470232
188	0x3e771807	0.2413026
189	0x3f87ddf9	1.0614616
190	0xbcda0e36	-0.026618104
191	0xbf0e2d4a	-0.55537856
192	0xbd24c3d9	-0.040225837
193	0xbd15e841	-0.036598448
194	0xbe0839ae	-0.13303253
195	0xbd964b50	-0.073385835
196	0x3eb8c034	0.3608414
197	0xbf54e18a	-0.83156645
198	0xbe09ee5a	-0.1346983
199	0xbe17f0b3	-0.14837913
200	0xbe2f956f	-0.17146848
201	0xbe478700	-0.19485092
202	0x3c8e8a0f	0.017399816
203	0xbe16be31	-0.1472099
204	0x3f311a3a	0.69180644
205	0xbf3bf53e	-0.73421085
206	0x3d3f1458	0.04665026
207	0xbe1a340c	-0.15058917
208	0xbec7633f	-0.38942906
209	0xbe91291d	-0.2835168
210	0x3dcbf557	0.09958904
211	0x3d768cb9	0.060192797
212	0x3e9bf3de	0.30459493
213	0x3e000447	0.12501632
214	0x3c7c3b31	0.015394972
215	0x3daf2da5	0.08553628
216	0xbef1da0b	-0.47236666
217	0x3e415b88	0.18882573
218	0x3cb3cb0f	0.021947412
219	0x3ccdf908	0.025143161
220	0x3ec9e667	0.39433596
221	0x3e89b4c6	0.26895732
222	0xbcec4277	-0.028840287
223	0xbcac2772	-0.021014903
224	0xbed50962	-0.4160872
225	0x3e8f8c76	0.2803685
226	0x3d0e9311	0.034808222
227	0x3dfbae79	0.122891374
228	0x3e5758d0	0.21029973
229	0xbe996416	-0.29959172
230	0x3c87c2eb	0.016572436
231	0x3e37de27	0.17955838
232	0xbe93adf6	-0.2884366
233	0x3f00bea4	0.50290895
234	0xbc4dc099	-0.012558126
235	0xbdf94932	-0.12172164
236	0xbdcd414f	-0.10022222
237	0xbf88b155	-1.0679117
238	0xbdce9642	-0.10087253
239	0xbe468e43	-0.19390206
240	0xbdc5a0cf	-0.096498124
241	0xbf364767	-0.712027
242	0x3d3a68ae	0.045509987
243	0xbebed1c3	-0.3726941
244	0x3d83e017	0.06439226
245	0xbf654c77	-0.895698
246	0x3d7f2d80	0.06229925
247	0xbebd2f93	-0.3695036
248	0x3e1ffe77	0.15624414
249	0xbf3a1550	-0.7268877
250	0xbc1b50b4	-0.00947969
251	0xbe70b345	-0.23505886
252	0x3deaccb4	0.11464825
253	0xbf8d6442	-1.1046221
254	0x3d3809ab	0.044931095
255	0xbe5ffe92	-0.21874455

fcs1.bias f4 [256]
0	0x3e0734d7	0.1320375
1	0x3e3f1017	0.18658482
2	0xbe163910	-0.14670205
3	0xbda08aae	-0.07838951
4	0x3da6916c	0.08133206
5	0x3e4cfc04	0.20018011
6	0xbe181349	-0.14851107
7	0x3dc960f5	0.09832946
8	0xbdfb30ef	-0.12265193
9	0xbd9ecf80	-0.07754421
10	0xbe34bfd4	-0.17651302
11	0x3d0a6074	0.03378339
12	0x3e2dcd5c	0.1697287
13	0xbe49566f	-0.19661878
14	0xbdcea483	-0.10089972
15	0x3dcaa1a7	0.09894114
16	0x3e4ed925	0.20200022
17	0x3d98e1b1	0.07464922
18	0x3e0624dc	0.13099998
19	0x3d09fe77	0.033689942
20	0x3d8db5a9	0.069194146
21	0xbe017418	-0.12641943
22	0x3d94f370	0.072729945
23	0x3e411a44	0.18857676
24	0xbd8a35f4	-0.06748572
25	0x3d155eaa	0.03646723
26	0xbbf52174	-0.0074807946
27	0x3e0d5e0b	0.13805406
28	0x3d3e81fe	0.04651069
29	0x3da37930	0.07982099
30	0xbd33b1cd	-0.043870736
31	0x3e3472a9	0.17621864
32	0xbe3281a6	-0.1743227
33	0x3dd41e10	0.103572965
34	0x3e501842	0.20321754
35	0xbcbe4681	-0.023226978
36	0xbe29b56d	-0.16573115
37	0x3dd5c224	0.1043742
38	0x3e02d06c	0.12774819
39	0xbe359d60	-0.17735815
40	0xbddfbd3f	-0.10924768
41	0xbb62753c	-0.003455474
42	0x3d61a4be	0.05508875
43	0x3dd925b1	0.10602892
44	0xbe454ba7	-0.1926714
45	0xbd8c9d8f	-0.068659894
46	0xbe368095	-0.17822488
47	0xbc38f6e9	-0.011289337
48	0xbe131582	-0.14363673
49	0x3e32e881	0.17471506
50	0x3bcfb350	0.0063385144
51	0x3c99efad	0.018791044
52	0x3e2b5c5b	0.1673445
53	0xbd455fd4	-0.048187092
54	0x3cb31e81	0.021865131
55	0x3e2580aa	0.16162363
56	0x3d450778	0.048102826
57	0xbdb6aea6	-0.0892003
58	0xbdeebb13	-0.11656775
59	0x3dd0f4fb	0.10202976
60	0xbd83c419	-0.06433887
61	0xbe4d1c80	-0.20030403
62	0x3d27541c	0.040851697
63	0xbe20aa7e	-0.15690038
64	0xbe4025b0	-0.18764377
65	0x3d96d29b	0.073643886
66	0xbdcfaf14	-0.101408154
67	0x3e052e80	0.1300602
68	0x3e2b36ca	0.16720119
69	0x3d446c8c	0.04795508
70	0xbe23df3a	-0.16003123
71	0x3da82fdd	0.08212254
72	0x3d3aef81	0.045638565
73	0xbe3ee7cc	-0.18643111
74	0xbe2635e4	-0.16231495
75	0x3d9fd559	0.07804365
76	0x3c8dfe0c	0.017333053
77	0x3ad689ae	0.0016367936
78	0xbce0668b	-0.027392646
79	0xbe139c16	-0.14415011
80	0xbe4c7d8b	-0.19969766
81	0x3ce65ae5	0.028119514
82	0xbd2de640	-0.04245591
83	0xbc1f38b4	-0.009718109
84	0xbd42f57a	-0.047597386
85	0x3d8cac60	0.068688154
86	0xbdb07588	-0.08616167
87	0xbe03d43b	-0.12873928
88	0x3dcda5c7	0.10041385
89	0x3d71da52	0.059046097
90	0xbe3e0e01	-0.1856003
91	0xbe3dbd2d	-0.18529196
92	0xbe24133c	-0.16022962
93	0x3e4e768b	0.20162408
94	0x3de4af71	0.11166275
95	0x3c8e67db	0.017383507
96	0xbe362005	-0.17785652
97	0x3d2ad8cc	0.04171066
98	0xbe2c06b0	-0.16799426
99	0xbe4a0b91	-0.19730975
100	0xbda6cc15	-0.08144394
101	0xbe33fdc7	-0.17577277
102	0x3e05399d	0.13010259
103	0x3e330829	0.17483582
104	0x3dd07956	0.10179393
105	0xbdcf5481	-0.1012354
106	0x3e3bb413	0.18330412
107	0x3c8db638	0.017298803
108	0xbdb8e620	-0.09028268
109	0xbd3d1e6e	-0.046171598
110	0xbdf8515d	-0.12124894
111	0x3e1694ae	0.14705154
112	0xbd5c74fc	-0.053822502
113	0xbde64cbd	-0.112451054
114	0xbe3d1f8d	-0.18469067
115	0xbdd7d8b6	-0.10539381
116	0xbd0f99a1	-0.03505862
117	0xbd956e0f	-0.07296383
118	0xbcb7e3f0	-0.022447556
119	0x3e41f89c	0.18942493
120	0x3d82668c	0.063672155
121	0xbe0b3bb5	-0.13596995
122	0x3dfa07e6	0.12208538
123	0x3dca5f23	0.09881427
124	0x3dbf3821	0.093368776
125	0xbe1e8d08	-0.15483487
126	0xbe43ff41	-0.1914034
127	0x3d47394c	0.048638627
128	0x3e3607bb	0.17776386
129	0x3d4d9829	0.05019394
130	0x3e006abc	0.12540716
131	0x3d144a52	0.03620369
132	0x3d2b0d78	0.04176089
133	0x3dde3902	0.10850717
134	0xbd7eb2ef	-0.062182363
135	0x3e204c44	0.15654093
136	0xbe375051	-0.17901732
137	0xbd9f644b	-0.07782801
138	0x3d0e0888	0.034676105
139	0xbd12034f	-0.035647687
140	0xbe2fa143	-0.1715136
141	0x3de14e5f	0.11001276
142	0xbe3cafa2	-0.18426374
143	0xbd8e6b14	-0.06954017
144	0x3df555f8	0.11979288
145	0xbd1b936e	-0.037982397
146	0x3deb8b4e	0.1150118
147	0xbdf719d3	-0.120654725
148	0xbd98a8da	-0.07454081
149	0x3dc3c248	0.095585406
150	0xbc67a2d7	-0.014137945
151	0x3e4dc2cf	0.20093845
152	0xbd79ebc5	-0.061015863
153	0x3de6eea4	0.11275986
154	0x3bfa42a5	0.007637339
155	0xbd1fa3b6	-0.038974486
156	0x3c30e292	0.010796206
157	0xbe24ef09	-0.1610681
158	0x3cb2dcc4	0.021833785
159	0xbe216795	-0.1576217
160	0x3e1a566e	0.15072033
161	0xbd9d04f8	-0.07666963
162	0xbc07d3e7	-0.008290268
163	0xbe4fafba	-0.20281878
164	0xbc4186e1	-0.011811943
165	0xbcbb07d5	-0.022830883
166	0x3e2791ae	0.16364166
167	0xbd8e8de3	-0.069606565
168	0x3d7b3cf1	0.061337415
169	0xbdcffccf	-0.10155641
170	0xbde704eb	-0.11280235
171	0xbb1440f8	-0.0022621732
172	0x3e4b4cbe	0.19853494
173	0x3ccb3af7	0.02480839
174	0xbe031352	-0.12800339
175	0xbcc13801	-0.023586275
176	0xbe4dfd41	-0.2011614
177	0xbcefcd65	-0.029272744
178	0xbd470b4e	-0.048594765
179	0xbd432e76	-0.04765173
180	0xbdb1aa7f	-0.08675098
181	0xbe47b117	-0.19501148
182	0xbd2ff79d	-0.04296075
183	0xbdaec6dd	-0.08534024
184	0x3d904d60	0.07046008
185	0x3e3d8177	0.18506418
186	0xbe1d8f16	-0.15386614
187	0x3de84662	0.113415495
188	0xbe1b3ae3	-0.15159182
189	0x3e23d22c	0.15998143
190	0xbc3e0a68	-0.011599161
191	0xbd866967	-0.06563073
192	0x3e198e32	0.1499565
193	0xbdfc0958	-0.1230647
194	0xbda297d1	-0.07939113
195	0xbceb9ab1	-0.028760286
196	0x3e0661e2	0.13123277
197	0x3e4f60f6	0.20251831
198	0xbdd8f6c4	-0.10593942
199	0xbcc06251	-0.02348438
200	0x3e4c482b	0.19949405
201	0xbd954c7c	-0.07289979
202	0x3e3bf344	0.18354517
203	0xbe40f348	-0.18842804
204	0xbd7f620c	-0.062349364
205	0x3e39daa3	0.1814981
206	0xbdd67392	-0.10471262
207	0xbdad9faf	-0.08477723
208	0x3dd966dc	0.10615322
209	0x3e18cb08	0.149212
210	0xbc500b54	-0.012698013
211	0x3b855462	0.004068897
212	0xbdacdf22	-0.08440997
213	0xbde84bf8	-0.11342615
214	0xbe27af5f	-0.16375493
215	0xbc9aac25	-0.018880913
216	0xbe1dd244	-0.15412241
217	0x3d79fa9e	0.061030023
218	0xbe193eb0	-0.1496532
219	0x3dc0f7b3	0.09422245
220	0x3df2a4e8	0.118478596
221	0xbe0f485d	-0.13992448
222	0x3dbe894b	0.0930353
223	0x3e4ceba6	0.20011768
224	0xbe07ce9e	-0.13262412
225	0xbd813fa0	-0.06310964
226	0xbddbd96d	-0.1073483
227	0xbe0b4775	-0.13601477
228	0xbd88a4fe	-0.06672095
229	0xbe4b39bf	-0.19846247
230	0xbe2d364e	-0.16915247
231	0x3d12eec0	0.03587222
232	0xbd137902	-0.036004074
233	0xbe39cf37	-0.18145452
234	0x3de5fd6d	0.11229978
235	0x3d310834	0.043220714
236	0xbe4db0f4	-0.20087034
237	0xbd88d923	-0.066820405
238	0x3dabb9fe	0.083850846
239	0xbe409036	-0.18805012
240	0xbe14fe44	-0.1455012
241	0xbe2825d4	-0.1642068
242	0x3cb63256	0.022240799
243	0xbe3684a4	-0.17824036
244	0xbe2f9625	-0.1714712
245	0x3e35b168	0.17743456
246	0x3d000b06	0.031260513
247	0xbdd2b88b	-0.10289105
248	0x3b83c590	0.004021354
249	0xbdb05c25	-0.08611325
250	0x3e2e0a92	0.1699622
251	0xbc56e277	-0.013115517
252	0x3c618c16	0.013766309
253	0x3df22191	0.118228085
254	0x3dc98965	0.09840659
255	0x3e4c8126	0.19971141

bn1.weight f4 [256]
0	0x3f9fe5e1	1.2492028
1	0x3f3833fb	0.71954316
2	0x3f0818cc	0.5316284
3	0x3f2dc2a1	0.67875105
4	0x3fa56544	1.2921529
5	0x3f42e82f	0.76135534
6	0x3f3efaef	0.74601644
7	0x3f1da558	0.6158042
8	0x3efa4624	0.48881638
9	0x3ede7115	0.4344565
10	0x3f005dbb	0.5014302
11	0x3f061219	0.52371365
12	0x3f04eef7	0.5192713
13	0x3edddb0a	0.43331176
14	0x3f1e5aa1	0.6185704
15	0x3ebf284f	0.3733544
16	0x3f9796b0	1.1842861
17	0x3e99589e	0.29950422
18	0x3f8a3c5d	1.0799671
19	0x3f18fc69	0.5976015
20	0x3ebc9686	0.3683359
21	0x3eff04ad	0.49808255
22	0x3ef8adf8	0.48570228
23	0x3f417fc8	0.75585604
24	0x3f1788b8	0.5919299
25	0x3ea07472	0.3133884
26	0x3ec97e46	0.3935415
27	0x3f045e5a	0.5170647
28	0x3f46c837	0.77649254
29	0x3ee17d86	0.4404108
30	0x3f3578a6	0.7088722
31	0x3ee71bcb	0.45138392
32	0x3f6ee0c2	0.93311703
33	0x3f2e53ae	0.68096435
34	0x3f19bf25	0.6005729
35	0x3f0085bc	0.5020406
36	0x3ebdc946	0.37067622
37	0x3f4a18e1	0.7894421
38	0x3f216807	0.6304936
39	0x3f133a70	0.57511044
40	0x3f991ff7	1.196288
41	0x3ec6f579	0.38859156
42	0x3fa72143	1.3057026
43	0x3e2d1c1f	0.16905259
44	0x3ef12f31	0.47106317
45	0x3eb29671	0.34880403
46	0x3f13be51	0.57712275
47	0x3f2450bb	0.64185685
48	0x3f2af27b	0.66776246
49	0x3f31dc8d	0.6947716
50	0x3e814928	0.25251126
51	0x3ee560c7	0.44800398
52	0x3ee30b02	0.44344336
53	0x3f54c0c6	0.8310665
54	0x3ee6ebf0	0.4510188
55	0x3f5caafc	0.861984
56	0x3ee8118a	0.4532588
57	0x3f784869	0.9698549
58	0x3ec73144	0.38904774
59	0x3e87db9f	0.26534745
60	0x3f9164b2	1.1358855
61	0x3f4aa99f	0.7916507
62	0x3f0e5a21	0.55606276
63	0x3f1c6fac	0.611079
64	0x3f209e38	0.6274142
65	0x3f1ed7f3	0.6204826
66	0x3ee1e288	0.44118142
67	0x3f86875b	1.0510057
68	0x3f256c7d	0.64618665
69	0x3ec8634c	0.39138258
70	0x3f8ccefb	1.1000665
71	0x3f176dbf	0.59151834
72	0x3f376089	0.71631676
73	0x3f33ec34	0.7028229
74	0x3f463554	0.7742512
75	0x3f5a069c	0.85166335
76	0x3ee1c9ef	0.44099376
77	0x3ed23a04	0.41059887
78	0x3f8040de	1.0019796
79	0x3f1fd259	0.6243034
80	0x3ecdccfc	0.40195453
81	0x3f4db788	0.8035817
82	0x3ee57c3e	0.44821352
83	0x3f0b7dee	0.5448903
84	0x3eced5e0	0.4039755
85	0x3eea65f0	0.45780897
86	0x3f1488cc	0.58021235
87	0x3f862360	1.0479546
88	0x3f8a7421	1.081669
89	0x3e8d2285	0.275654
90	0x3f3bed29	0.7340875
91	0x3f5de4b2	0.86677086
92	0x3f0cf353	0.55058783
93	0x3f398d5f	0.7248134
94	0x3f160de8	0.5861497
95	0x3f616207	0.880402
96	0x3ec1a5f2	0.3782192
97	0x3e96e456	0.29471081
98	0x3ef6a8f6	0.48175782
99	0x3f3ce270	0.73783016
100	0x3eb9ed6b	0.36313948
101	0x3f56608a	0.83741057
102	0x3eedca24	0.46443284
103	0x3f18eb1b	0.5973374
104	0x3f0c42d0	0.5478945
105	0x3ee3dd16	0.44504613
106	0x3f35c04b	0.7099654
107	0x3f28c7a4	0.6592963
108	0x3ee52bdf	0.44760033
109	0x3f99dd76	1.202071
110	0x3f68e0c2	0.90967953
111	0x3e3db63a	0.18526545
112	0x3e2c0af8	0.16801059
113	0x3f730ec5	0.9494441
114	0x3eb92e2a	0.36168033
115	0x3f29d866	0.6634582
116	0x3eb95197	0.3619506
117	0x3efa865a	0.48930627
118	0x3f148a7b	0.58023804
119	0x3f8025c7	1.0011529
120	0x3f03e2f5	0.51518184
121	0x3f0bb048	0.5456586
122	0x3eb74670	0.35795927
123	0x3e6d447e	0.23170659
124	0x3f6eb6ae	0.932475
125	0x3f7121f5	0.9419244
126	0x3f230277	0.63675636
127	0x3eb309e0	0.34968472
128	0x3f5052af	0.81376165
129	0x3f2f5e9f	0.68503755
130	0x3ef06b0e	0.46956676
131	0x3f6b6c3d	0.91962034
132	0x3f41759e	0.75570095
133	0x3ed399bd	0.4132823
134	0x3f0d1100	0.55104065
135	0x3f0efd4e	0.5585526
136	0x3f298faf	0.6623487
137	0x3f03ebd5	0.51531726
138	0x3f31fbbc	0.6952474
139	0x3f931961	1.149212
140	0x3f6072a1	0.8767491
141	0x3f5c26a5	0.85996467
142	0x3f033198	0.5124755
143	0x3ec09b4b	0.3761848
144	0x3ecfbeb0	0.4057517
145	0x3f204caf	0.6261701
146	0x3eb7fd6f	0.35935542
147	0x3e86f1cb	0.26356348
148	0x3f7b5f01	0.9819184
149	0x3f706c5b	0.9391534
150	0x3f18392f	0.59462255
151	0x3f83a042	1.0283282
152	0x3ee05bfb	0.43820176
153	0x3f13c8e5	0.57728416
154	0x3f641759	0.89098126
155	0x3f2e0f04	0.6799166
156	0x3f2fb714	0.6863873
157	0x3f112cc3	0.56708926
158	0x3ecc5d6a	0.3991502
159	0x3eef0500	0.46683502
160	0x3f61f296	0.8826078
161	0x3f17f1e1	0.5935345
162	0x3ef56b26	0.4793331
163	0x3f1ecb35	0.6202882
164	0x3ed55ede	0.4167394
165	0x3ee97514	0.45597136
166	0x3f2bca92	0.6710597
167	0x3ed4212d	0.4143156
168	0x3f067d84	0.5253527
169	0x3f0d2ec0	0.5514946
170	0x3ec48cba	0.38388616
171	0x3f012dda	0.5046059
172	0x3efb86b1	0.491262
173	0x3eaf5416	0.3424384
174	0x3f23a69e	0.6392611
175	0x3eb0b7c4	0.34515202
176	0x3ef8d104	0.48596966
177	0x3f3c2893	0.7349941
178	0x3f0709bd	0.52749234
179	0x3ef505d0	0.47855997
180	0x3f1ddd13	0.6166546
181	0x3efd1485	0.49429718
182	0x3f1f086b	0.6212222
183	0x3f6cc633	0.9248993
184	0x3ebe7cb0	0.37204504
185	0x3ecafad9	0.39644507
186	0x3f185c80	0.59516144
187	0x3f129d5b	0.57271355
188	0x3f03e1b4	0.5151627
189	0x3f34086f	0.7032537
190	0x3ebe337a	0.37148649
191	0x3ef73232	0.48280483
192	0x3f8945c2	1.0724413
193	0x3ee152b4	0.4400841
194	0x3ee32a27	0.44368097
195	0x3f1014ff	0.5628204
196	0x3f2d4db7	0.6769671
197	0x3f5cef35	0.863025
198	0x3e893fb3	0.2680641
199	0x3f45a4c9	0.7720457
200	0x3f45c239	0.77249485
201	0x3f1d29ac	0.6139171
202	0x3f18f194	0.5974362
203	0x3f56f025	0.8396018
204	0x3ec369b3	0.3816658
205	0x3ef835bf	0.48478505
206	0x3f9a8b8d	1.2073838
207	0x3eeccd66	0.46250457
208	0x3ea3c909	0.31989315
209	0x3ed91356	0.42397565
210	0x3ec68076	0.38769883
211	0x3eb8befc	0.3608321
212	0x3fb34e41	1.4008256
213	0x3f589ae6	0.84611356
214	0x3f35efd1	0.71069056
215	0x3ea18217	0.31544563
216	0x3f171a5b	0.5902459
217	0x3ec18f8d	0.37804833
218	0x3f0d1067	0.55103153
219	0x3ec7b889	0.39007977
220	0x3f19cc8e	0.6007775
221	0x3ee8e0e2	0.45484072
222	0x3ec82020	0.3908701
223	0x3f2048d1	0.6261111
224	0x3f8fdb05	1.1238714
225	0x3eb29dab	0.34885916
226	0x3f34828e	0.7051171
227	0x3e6c71e2	0.23090318
228	0x3efd7630	0.49504232
229	0x3f2fc79a	0.6866394
230	0x3f0b38d2	0.54383576
231	0x3f624fa5	0.8840278
232	0x3ee922cd	0.45534363
233	0x3f478dfe	0.7795104
234	0x3fad30a7	1.3530473
235	0x3e9bd64b	0.3043693
236	0x3f1b682b	0.6070582
237	0x3f5613c9	0.8362394
238	0x3ea2e2e2	0.31813723
239	0x3f12c440	0.57330704
240	0x3efaa306	0.48952502
241	0x3ee72bf2	0.45150715
242	0x3f20db38	0.628345
243	0x3f02e149	0.5112501
244	0x3ecff885	0.40619293
245	0x3eee0ace	0.46492618
246	0x3f2d9c8f	0.67817014
247	0x3e340fb7	0.1758412
248	0x3eb4e62e	0.35331863
249	0x3f1464de	0.5796641
250	0x3f63192f	0.887103
251	0x3ee93a7b	0.4555243
252	0x3f6f78f1	0.93543917
253	0x3f17166d	0.59018594
254	0x3ec0a1f2	0.37623554
255	0x3ee43f68	0.44579625

bn1.bias f4 [256]
0	0xbec6eb25	-0.38851276
1	0xbe1a7fbf	-0.15087794
2	0xbf23d688	-0.63999224
3	0xbf29fb5b	-0.66399163
4	0xbd3aa244	-0.045564905
5	0xbdf0beb7	-0.11755126
6	0xbdcd324a	-0.100193575
7	0x3dbbdaf1	0.09172619
8	0xbeadfdbf	-0.33982655
9	0xbec76368	-0.38943028
10	0xbf34f0aa	-0.70679724
11	0xbee79b18	-0.45235515
12	0xbeb37890	-0.3505292
13	0xbec6db11	-0.3883901
14	0xbedc1e8c	-0.42992055
15	0xbec465b2	-0.38358837
16	0xbe9c3b49	-0.3051398
17	0xbcd0507f	-0.025429009
18	0x3e008940	0.12552357
19	0xbf393739	-0.7234989
20	0xbebd3c07	-0.3695986
21	0xbeb11f31	-0.3459411
22	0xbf0530d4	-0.5202763
23	0xbe23d751	-0.16000105
24	0xbe9150df	-0.28382012
25	0xbea3425e	-0.31886572
26	0xbee78561	-0.45218948
27	0xbebbb866	-0.36664122
28	0xbd8a512a	-0.06753762
29	0xbf05b878	-0.522346
30	0xbeba95b5	-0.36442342
31	0xbf13b39c	-0.5769594
32	0x3cc81202	0.02442265
33	0xbeecfec5	-0.46288124
34	0xbef77479	-0.4833105
35	0xbe3df26f	-0.18549512
36	0xbef67703	-0.48137674
37	0xbe8872dd	-0.26650134
38	0xbeffb158	-0.4993999
39	0xbf23b0b9	-0.6394153
40	0xbf067749	-0.52525765
41	0xbf226bef	-0.63445944
42	0xbf08b396	-0.53399026
43	0x3e06f1d6	0.1317819
44	0xbf0942a9	-0.5361734
45	0xbef89670	-0.48552275
46	0xbdb8468a	-0.08997829
47	0xbe4a0feb	-0.19732635
48	0xbf0e7f8b	-0.55663365
49	0xbf247dba	-0.64254344
50	0xbf259f0d	-0.6469582
51	0xbe72cec4	-0.23711687
52	0xbe39944c	-0.18122977
53	0xbeed60c0	-0.46362877
54	0xbf162193	-0.5864498
55	0x3dfb4455	0.12268893
56	0xbeff27ec	-0.49835145
57	0xbeedf1dd	-0.4647359
58	0xbedb40fb	-0.42823014
59	0xbd5a9ccd	-0.053372193
60	0xbf18a7c0	-0.59630966
61	0xbeaf1dfa	-0.34202558
62	0x3e465308	0.19367611
63	0xbf38ca2a	-0.7218348
64	0xbf20c71d	-0.6280382
65	0xbf35d9a3	-0.7103521
66	0xbf04783e	-0.51745975
67	0xbea05d76	-0.31321305
68	0xbf23399a	-0.6375977
69	0xbf1adea2	-0.6049596
70	0xbdd067cc	-0.10176048
71	0xbe317a89	-0.173319
72	0xbf3a72e5	-0.72831565
73	0xbdd98033	-0.10620155
74	0xbf056f0c	-0.5212257
75	0xbe910963	-0.28327474
76	0xbe80ec05	-0.2518007
77	0xbf2a88ab	-0.6661479
78	0x3e9c0af1	0.30477098
79	0xbf1b5873	-0.6068184
80	0xbf31f046	-0.69507253
81	0xbebd1cf0	-0.3693614
82	0xbeca17f9	-0.39471415
83	0xbf23c366	-0.6397003
84	0xbf1f8dae	-0.6232556
85	0xbe1417ca	-0.144622
86	0xbf13cd6d	-0.5773533
87	0xbec95239	-0.39320543
88	0xbeb5346c	-0.35391557
89	0xbf136f46	-0.57591665
90	0xbe4cd9fa	-0.20005026
91	0xbe68f73a	-0.2275056
92	0xbefa23ff	-0.48855588
93	0xbeaf5d6a	-0.34250957
94	0xbf0cd899	-0.55018
95	0xbeede312	-0.46462303
96	0xbedaa851	-0.4270654
97	0xbf0e1cc7	-0.5551266
98	0xbec2119a	-0.37904054
99	0xbe81ef28	-0.25377774
100	0xbecd921b	-0.40150532
101	0xbdedd348	-0.11612564
102	0xbf1261dc	-0.5718057
103	0xbdd3e32a	-0.103460625
104	0xbe69a536	-0.22816929
105	0xbf214cd9	-0.63007885
106	0xbd940eff	-0.07229423
107	0x3e6d42fe	0.23170087
108	0xbeeea97b	-0.46613678
109	0xbe066933	-0.13126068
110	0x3dfa0e1b	0.12209722
111	0xbf0bf771	-0.5467444
112	0xbf373a5a	-0.7157341
113	0xbed38f15	-0.413201
114	0xbed935dc	-0.42423904
115	0xbef880f0	-0.48535872
116	0xbed39886	-0.41327304
117	0xbecf219b	-0.40455326
118	0xbf0ffe5c	-0.56247497
119	0xbe871132	-0.26380306
120	0xbf02390f	-0.50868315
121	0xbf0d3dc6	-0.55172384
122	0xbef98c59	-0.4873989
123	0xbf3c6749	-0.735951
124	0xbd9e5dd7	-0.07732742
125	0xbdae953f	-0.0852456
126	0xbf0fd4fc	-0.56184363
127	0xbeb4f793	-0.35345134
128	0xbf3c7f03	-0.73631305
129	0xbf320e5c	-0.6955316
130	0xbecce92a	-0.4002164
131	0xbee8c20f	-0.45460555
132	0xbf1117b8	-0.56676817
133	0xbe8de352	-0.27712494
134	0xbf174c29	-0.59100586
135	0xbefc3eaf	-0.49266574
136	0xbf2b9b81	-0.67034155
137	0xbecbd5ea	-0.3981164
138	0xbd34cce7	-0.044140723
139	0xbf20006c	-0.62500644
140	0xbf40a8ac	-0.7525737
141	0xbe76aac3	-0.24088578
142	0xbf031e1d	-0.51217824
143	0xbeca8692	-0.39555794
144	0xbf05e213	-0.52298087
145	0xbea58cc1	-0.3233395
146	0xbf01e446	-0.5073894
147	0xbf5846ce	-0.8448304
148	0xbc3d8b2d	-0.011568827
149	0xbbb99f2f	-0.005664728
150	0xbf1f7b39	-0.622974
151	0xbee71554	-0.4513346
152	0xbea42090	-0.32056093
153	0xbf278d23	-0.6544973
154	0xbe495cfa	-0.19664374
155	0xbf1951f4	-0.59890676
156	0xbf1432dd	-0.5789011
157	0xbf15fdbd	-0.585903
158	0xbed75562	-0.4205733
159	0xbeeee20f	-0.46656844
160	0xbe8fd9eb	-0.28095946
161	0xbe2e291a	-0.17007867
162	0xbf113540	-0.5672188
163	0xbf0ce5b2	-0.5503799
164	0xbeec7e51	-0.46190122
165	0xbed6030b	-0.41799197
166	0xbea4a6c1	-0.32158473
167	0xbebc03a6	-0.36721534
168	0xbf06d937	-0.52675194
169	0xbee2cf17	-0.44298622
170	0xbf00bd75	-0.5028909
171	0xbf1144a9	-0.5674539
172	0xbf15916a	-0.5842501
173	0xbf2a7d2e	-0.6659726
174	0xbe21a9c2	-0.15787414
175	0xbf1a59d6	-0.6029333
176	0xbe98cb9c	-0.29842842
177	0xbe9917e9	-0.29901055
178	0xbf2beffc	-0.6716306
179	0xbee328e2	-0.4436713
180	0xbeed27cb	-0.46319422
181	0xbf158fbe	-0.5842246
182	0xbe9591e6	-0.29212874
183	0xbe6fc139	-0.23413552
184	0xbea0eb00	-0.3142929
185	0xbedfc68d	-0.4370617
186	0xbf09e635	-0.53866893
187	0xbeab9af9	-0.33516672
188	0xbf218099	-0.6308685
189	0xbddee168	-0.108828366
190	0xbee09e25	-0.43870655
191	0xbedf2775	-0.4358479
192	0x3e5672ab	0.2094218
193	0xbeecde10	-0.4626317
194	0xbf2ed7e4	-0.6829817
195	0xbef1325f	-0.47108743
196	0xbf09ee6f	-0.53879446
197	0xbeb0dda6	-0.34544104
198	0xbe7d4daa	-0.24736658
199	0x3db92298	0.09039801
200	0xbf231e87	-0.63718456
201	0xbeb5c2f1	-0.3550029
202	0xbe485a0d	-0.19565602
203	0xbde2c1bb	-0.110721074
204	0xbe4aaad2	-0.19791725
205	0xbf014dde	-0.5050944
206	0xbe71b459	-0.23603953
207	0xbe9765e1	-0.29569915
208	0xbe810628	-0.2520001
209	0xbed47696	-0.41496724
210	0xbeb5b9d2	-0.35493332
211	0xbea5d4f6	-0.3238904
212	0xbed9e911	-0.42560628
213	0xbeed1779	-0.4630697
214	0x3e1e815c	0.15479034
215	0xbed7c31a	-0.42141038
216	0xbf049e92	-0.5180446
217	0xbf2fec0f	-0.6871957
218	0xbf1e05ac	-0.61727405
219	0xbe987e4d	-0.2978386
220	0xbed5b970	-0.4174304
221	0xbee4f50b	-0.44718203
222	0xbf052e01	-0.5202332
223	0xbe8c442c	-0.2739576
224	0xbe5cd1da	-0.21564427
225	0xbf01c59a	-0.5069214
226	0xbec98eed	-0.39366856
227	0xbefa6bbe	-0.48910326
228	0xbf340335	-0.70317394
229	0xbf0ccfee	-0.55004776
230	0xbf0b4586	-0.5440296
231	0xbecb4714	-0.39702666
232	0xbed1324b	-0.40858683
233	0xbddc97ed	-0.10771165
234	0x3b0356f7	0.0020040849
235	0xbf158586	-0.58406866
236	0xbd69ef76	-0.057113133
237	0xbe304ab8	-0.17216003
238	0xbe1d54dd	-0.15364404
239	0xbd3712dd	-0.044695724
240	0xbecd56f9	-0.40105417
241	0xbec84e04	-0.3912202
242	0xbe8a8252	-0.27052552
243	0xbee9102a	-0.45520145
244	0xbf0b25a9	-0.5435434
245	0xbef10f99	-0.47082213
246	0xbe432147	-0.19055663
247	0xbf32dde4	-0.6986983
248	0xbf5218fe	-0.82069385
249	0xbd762121	-0.060090188
250	0xbe17e6e8	-0.14834177
251	0xbeee2620	-0.46513462
252	0xbead5509	-0.3385394
253	0xbe56d27d	-0.20978732
254	0xbf0545a0	-0.52059364
255	0xbede735b	-0.43447384

bn1.running_mean f4 [256]
0	0x3fc34ba6	1.5257461
1	0x413608ca	11.377146
2	0x40411935	3.0171635
3	0xbf6e857c	-0.9317243
4	0xbfa4144b	-1.2818693
5	0xc0e96856	-7.2939863
6	0x4001e7fc	2.0297842
7	0x40ea20aa	7.3164873
8	0xbfbd48b6	-1.4787815
9	0x4062d6ff	3.5443723
10	0xc0aeb367	-5.4593997
11	0x4122bfb2	10.171801
12	0x41559ca3	13.350741
13	0x412b633a	10.711725
14	0x410738a0	8.451324
15	0x4094d662	4.65117
16	0x3fce5514	1.6119714
17	0xc07aaa19	-3.916632
18	0x4057f631	3.3744013
19	0x410902ea	8.563211
20	0xc139392d	-11.576459
21	0x410d1880	8.818481
22	0x40e254f8	7.072872
23	0x40a3742f	5.1079326
24	0x40b45dc3	5.6364455
25	0x411e28df	9.884978
26	0xc10214be	-8.130064
27	0xc1304622	-11.017122
28	0x40ae211b	5.441541
29	0x410ada68	8.678322
30	0x4121408a	10.078257
31	0x4090e5fb	4.528074
32	0x4121ffb4	10.1249275
33	0x41391064	11.566502
34	0x40199280	2.3995667
35	0x3f0f71a7	0.56032795
36	0xbfe3f5cd	-1.7809387
37	0xbf1abc0f	-0.60443205
38	0x3fe3a74c	1.778543
39	0x40cd2a26	6.411395
40	0x411c82e5	9.781957
41	0x402b55bf	2.6771085
42	0x40155ec3	2.3339088
43	0xbf144b22	-0.57927144
44	0x408a12bd	4.3147874
45	0x40c519a1	6.1593785
46	0xbfa99c38	-1.3250799
47	0x4109b907	8.607673
48	0x41037f43	8.21857
49	0x4084bec7	4.1482882
50	0xbfc30094	-1.5234551
51	0x40e53e9b	7.1638923
52	0xbf33c52f	-0.70222753
53	0x403624f7	2.8460062
54	0x40dcdff9	6.9023404
55	0xc04f2a1a	-3.2369447
56	0x4135c926	11.3616085
57	0x40ba53db	5.8227363
58	0x40829a3f	4.081329
59	0x40dd43c7	6.9145236
60	0x40ca63bb	6.324674
61	0x410f0f49	8.941232
62	0x40c13371	6.0375295
63	0x40b64685	5.6961083
64	0xbb05ae4c	-0.0020398078
65	0x40c38196	6.1095686
66	0xc130a443	-11.040103
67	0x3f0fa54a	0.56111586
68	0x41126867	9.150489
69	0xc10a0531	-8.626267
70	0x3fe87cd3	1.8163093
71	0x408adb90	4.339302
72	0xc14500cb	-12.312694
73	0x40a0c334	5.0238285
74	0x3e98b8cd	0.29828492
75	0x41345a6a	11.272074
76	0x3f745308	0.95439196
77	0x3f794365	0.9736846
78	0x3fef7bff	1.8709716
79	0x40ff06b4	7.9695683
80	0xc0929431	-4.58059
81	0x408184e4	4.047472
82	0x4184ae7f	16.585203
83	0xc0d923d1	-6.785622
84	0xc12981ce	-10.594191
85	0x3f86f41d	1.0543247
86	0x40e76b2e	7.2318335
87	0x4139bf67	11.609229
88	0x3ed103b5	0.4082314
89	0xc075bd4e	-3.8396792
90	0x3f4da8aa	0.80335486
91	0x3e1013ce	0.14070055
92	0x3f70b5f2	0.94027627
93	0xc107b06a	-8.48057
94	0x4007cae9	2.1217597
95	0xc0454c67	-3.0827882
96	0xc1189ed5	-9.538777
97	0x3fe8059a	1.812671
98	0x3fd3cee5	1.6547514
99	0x403940a6	2.8945708
100	0xc0704b31	-3.7545893
101	0xbf753636	-0.95785844
102	0xc0779ea9	-3.8690588
103	0xc15cc126	-13.797155
104	0xc03b1106	-2.922914
105	0xc14b493f	-12.705382
106	0x410f3d66	8.95249
107	0x4123aeef	10.230208
108	0x4086024d	4.187781
109	0xbe343475	-0.17598136
110	0x40937595	4.6081033
111	0x406edc41	3.7321932
112	0x40db87cd	6.8603272
113	0x4040107b	3.001006
114	0x4152ea09	13.1821375
115	0xc03ca095	-2.9473011
116	0x3edbf459	0.4295986
117	0x4104734d	8.27815
118	0x4001d8e8	2.028864
119	0x409ce2fe	4.902709
120	0x3faf7c76	1.3709857
121	0xc0aa7607	-5.3269076
122	0x3fc65b2e	1.5496576
123	0xc1686daf	-14.526778
124	0x4103f012	8.246111
125	0xc09b19bc	-4.8468914
126	0x3ff2dbdf	1.8973349
127	0x40eaf86c	7.342825
128	0xbfcfd10f	-1.6235675
129	0x40e71911	7.22181
130	0xc0aef325	-5.4671807
131	0x41036c93	8.214007
132	0x40d9c72b	6.8055625
133	0x40847c18	4.140148
134	0x3fc20eef	1.5160807
135	0xc0b4849e	-5.6411886
136	0x3f7cfab4	0.9882004
137	0xc078e39f	-3.888893
138	0x413eda13	11.928241
139	0x3fa8e8e5	1.3196074
140	0xbff27ed0	-1.894495
141	0xbf859d37	-1.0438603
142	0x40c97902	6.2960215
143	0x40db434f	6.8519664
144	0x408f61cc	4.480688
145	0x412dc299	10.860009
146	0xc196f54a	-18.86977
147	0x40c487db	6.141584
148	0x408581b0	4.172081
149	0x409fb70c	4.9910946
150	0xc1569d8b	-13.413463
151	0x411ba782	9.728395
152	0x4080827b	4.015928
153	0xc01dfde2	-2.4686208
154	0xbfbd8665	-1.4806639
155	0xc1281e4a	-10.507395
156	0xc0b1b26e	-5.553031
157	0x40105f75	2.2558262
158	0xc0861b63	-4.190843
159	0x409ae0ae	4.8399267
160	0xbf491a90	-0.78556156
161	0x410243f4	8.14159
162	0x411e9dfe	9.913572
163	0x40ad4474	5.414606
164	0xc186f4f0	-16.869598
165	0x3fad6a07	1.3547982
166	0x40984d48	4.7594337
167	0x412b30b1	10.699388
168	0xc09bc879	-4.8682218
169	0x4009b79f	2.1518323
170	0xbf0f10ce	-0.55885017
171	0xc164f09f	-14.308745
172	0x415109a9	13.064858
173	0xc149d363	-12.614108
174	0xc07c0105	-3.9375622
175	0xc0e37a23	-7.1086593
176	0x3ffdb3cc	1.9820495
177	0xc0a3dafe	-5.1204824
178	0xc105ebb6	-8.370047
179	0xc036099b	-2.8443363
180	0x4100b8f7	8.045157
181	0x40b67cd6	5.702739
182	0x3f9da71e	1.2316625
183	0xc1051932	-8.318651
184	0xc036d3f9	-2.8566878
185	0x3ff9923c	1.9497752
186	0x411c43e3	9.766574
187	0x41676f31	14.464646
188	0xc08a2ac7	-4.317722
189	0x3ff18e02	1.8871462
190	0x40859ad8	4.175152
191	0x3eeab0a4	0.4583789
192	0x4039af31	2.9013178
193	0xc16c9853	-14.787189
194	0x3f826bea	1.0189183
195	0xc01de7a2	-2.4672627
196	0xc02dfd7d	-2.7185967
197	0xbf7776c0	-0.96665573
198	0x40ec77e7	7.3896365
199	0x4102fb7d	8.1863985
200	0x3e69fc92	0.22850254
201	0x415edc48	13.92878
202	0xc04a3d39	-3.1599867
203	0xbe9063e1	-0.28201202
204	0xc0f8289c	-7.754957
205	0x41382240	11.508362
206	0xbf1bac27	-0.6080956
207	0xc0f4c047	-7.6484714
208	0xc056efc2	-3.3583837
209	0xc02796a6	-2.6185699
210	0x40782d13	3.877751
211	0x412870df	10.527556
212	0x3fd05436	1.6275699
213	0x40976cc8	4.732029
214	0x40075a98	2.1149044
215	0xc123e574	-10.243519
216	0xbf67f79b	-0.9061219
217	0x3ff97bf4	1.9490952
218	0x408b5d1d	4.3551164
219	0x40f67490	7.701729
220	0x40870337	4.2191424
221	0xc0c6f3d9	-6.2172666
222	0xc1280491	-10.501115
223	0xc0699d64	-3.6502314
224	0x41215174	10.082386
225	0x4161df1d	14.116971
226	0x415366cd	13.212598
227	0x4083c4a4	4.117754
228	0xc0e8d5d0	-7.2761
229	0x40db4d19	6.8531613
230	0x40a64a6d	5.196585
231	0x40c30623	6.094499
232	0x400213e6	2.0324645
233	0x412c60e9	10.77366
234	0xbdf26616	-0.118358776
235	0xc10645a2	-8.392
236	0x413e2f74	11.886585
237	0xc16c1982	-14.7562275
238	0x40de2fa5	6.943316
239	0x40127752	2.2885327
240	0x41120d82	9.128298
241	0x409ab7e1	4.834946
242	0xbf30f4f1	-0.6912375
243	0x409a6ee1	4.826035
244	0x40c4fc8c	6.1558285
245	0x3fc081f0	1.5039654
246	0xbf982e5b	-1.1889147
247	0xbfb1f4ea	-1.3902867
248	0xc0f4c098	-7.64851
249	0xc1acf95f	-21.621763
250	0x4034e159	2.8262541
251	0x40eb0f43	7.345613
252	0x417a44cc	15.641796
253	0x40a02c11	5.005379
254	0xc08a2f70	-4.3182907
255	0x401f2ad3	2.4869888

bn1.running_var f4 [256]
0	0x40d59341	6.6742253
1	0x42012e73	32.29536
2	0x4302f5dd	130.9604
3	0x42755d37	61.34103
4	0x408e6e5e	4.4509726
5	0x431f47de	159.28073
6	0x422cad27	43.169094
7	0x421a9d0c	38.653366
8	0x4299fbc2	76.991714
9	0x41ff5b7b	31.919668
10	0x42723a2f	60.55682
11	0x43317dca	177.49136
12	0x42af9524	87.79129
13	0x42a29e26	81.30888
14	0x4294ca3f	74.39501
15	0x433032f2	176.199
16	0x422c5d88	43.09134
17	0x43033b2a	131.23111
18	0x40cee99d	6.4660172
19	0x43148b20	148.54346
20	0x42cdf728	102.98273
21	0x4349778d	201.467
22	0x4319c2f0	153.76147
23	0x41c04e3b	24.038198
24	0x42eae7b9	117.45258
25	0x4363d031	227.81325
26	0x44806e5f	1027.4491
27	0x41cf4c75	25.912333
28	0x418e3b16	17.77885
29	0x42d2311f	105.09594
30	0x42df00fb	111.501915
31	0x4324bd7d	164.74019
32	0x4279abb2	62.41767
33	0x43044266	132.25937
34	0x42f8a61a	124.32442
35	0x42be64c8	95.19684
36	0x430fb1ad	143.69405
37	0x411c52f9	9.770257
38	0x42604c64	56.0746
39	0x42b7e57c	91.94821
40	0x41af8ac5	21.942759
41	0x43126eda	146.43301
42	0x4179dca2	15.616365
43	0x439d9703	315.17978
44	0x4341d469	193.82973
45	0x435ba99f	219.66258
46	0x42ad7c7f	86.74316
47	0x424b52db	50.830914
48	0x4329e28a	169.88492
49	0x416d6ebc	14.839535
50	0x448d3f97	1129.9872
51	0x425174d7	52.3641
52	0x4371c7f9	241.78114
53	0x41de9a5a	27.825367
54	0x432818a4	168.09625
55	0x42ee64e6	119.19707
56	0x42b36b17	89.70916
57	0x41bd1a5f	23.637877
58	0x4317ad1a	151.67618
59	0x4314df13	148.87138
60	0x41790607	15.5639715
61	0x436900a4	233.0025
62	0x4274287a	61.039528
63	0x42998114	76.752106
64	0x42b9c690	92.88782
65	0x4320bce3	160.73784
66	0x4297736c	75.72543
67	0x40c5e2d7	6.1839404
68	0x424b0b78	50.7612
69	0x42d1b2be	104.849106
70	0x4183bade	16.466244
71	0x42c25eb3	97.18496
72	0x42279d1e	41.903435
73	0x4270c42b	60.19157
74	0x415bbf3e	13.73419
75	0x42ac25d0	86.07385
76	0x433e2c8f	190.17406
77	0x43be224c	380.26794
78	0x418b13fe	17.384762
79	0x435b09a7	219.0377
80	0x428085dc	64.261444
81	0x423bf3c4	46.988052
82	0x433eb2ae	190.69797
83	0x43041059	132.06386
84	0x41b5c572	22.721409
85	0x43443d35	196.23909
86	0x42848665	66.26249
87	0x41e93855	29.152506
88	0x42dd4061	110.62574
89	0x42eed780	119.4209
90	0x41f841d4	31.032143
91	0x42b488bb	90.26705
92	0x432f2245	175.13387
93	0x41fb0c86	31.381115
94	0x4206b9b1	33.68134
95	0x420ee16d	35.720142
96	0x42cc563c	102.16843
97	0x42dcec36	110.46135
98	0x42caa831	101.3285
99	0x43345253	180.32158
100	0x438c4c32	280.59528
101	0x40b79bdc	5.737776
102	0x4300dd6a	128.8649
103	0x42d251c7	105.15972
104	0x424f2445	51.78542
105	0x42d788f1	107.76746
106	0x42af179c	87.54611
107	0x42e51c18	114.55487
108	0x4322448e	162.26779
109	0x40b8feef	5.78112
110	0x41833f26	16.405834
111	0x433ed463	190.82964
112	0x43c68fb6	397.12274
113	0x4168bafb	14.54565
114	0x429883b5	76.25724
115	0x41d2048c	26.25222
116	0x431e6369	158.38832
117	0x4267a631	57.912296
118	0x41e75d3e	28.920528
119	0x42c734f2	99.60341
120	0x42dfd056	111.906906
121	0x4334dd81	180.86525
122	0x43340533	180.02031
123	0x436de49d	237.89302
124	0x42781e84	62.0298
125	0x4382d66d	261.6752
126	0x4305dd55	133.86458
127	0x42f6ce75	123.40324
128	0x41818459	16.189623
129	0x42d49a8f	106.30187
130	0x42042a03	33.041027
131	0x421731f8	37.798798
132	0x428f87d5	71.7653
133	0x41c2ee9a	24.366505
134	0x430e41b1	142.2566
135	0x42c72178	99.56537
136	0x419cc608	19.596695
137	0x42efd81b	119.92208
138	0x4258200d	54.0313
139	0x40e15d1a	7.042615
140	0x418f5862	17.918156
141	0x41487697	12.528953
142	0x428f6f11	71.71693
143	0x42941214	74.03531
144	0x4308b20c	136.6955
145	0x43031550	131.08325
146	0x42aefef6	87.49797
147	0x42ae5c0b	87.17977
148	0x42dd82dd	110.75559
149	0x42bd5bc0	94.6792
150	0x4263469a	56.818947
151	0x4242315b	48.5482
152	0x43b50426	362.0324
153	0x431b5c0c	155.35956
154	0x42135397	36.83163
155	0x420e6e61	35.60779
156	0x4262aabf	56.666744
157	0x41ceff83	25.874762
158	0x43061fdc	134.12445
159	0x42cd46f2	102.638565
160	0x43028280	130.50977
161	0x4271171f	60.27258
162	0x42fcee40	126.46533
163	0x429bd3cb	77.91366
164	0x428dcd8d	70.90147
165	0x42806ca0	64.21216
166	0x421bd57b	38.958477
167	0x42cc8ed8	102.27899
168	0x42a18ae5	80.77128
169	0x4237714e	45.86065
170	0x42afd537	87.916435
171	0x436b7350	235.45044
172	0x4306f671	134.96266
173	0x427944f9	62.317356
174	0x42648921	57.133915
175	0x42e85e56	116.18425
176	0x4329f435	169.95393
177	0x4297bf4b	75.87362
178	0x42ddcaf3	110.896385
179	0x43524417	210.26598
180	0x42eb5230	117.66052
181	0x42f03b4a	120.1158
182	0x424b91ea	50.892494
183	0x421cc64c	39.19365
184	0x4255a320	53.4093
185	0x4348721e	200.44577
186	0x4285fb69	66.991035
187	0x4247a2a1	49.908817
188	0x43223ea8	162.24475
189	0x4218fd43	38.247326
190	0x42279260	41.892944
191	0x42f135f3	120.60537
192	0x4169fc74	14.624134
193	0x42c30415	97.50797
194	0x42fc0c43	126.02395
195	0x43a26ee3	324.8663
196	0x41e2e267	28.360548
197	0x415bed1a	13.745386
198	0x42e8b9a3	116.36257
199	0x41f26cab	30.30306
200	0x41fd0c08	31.630875
201	0x42c3e459	97.94599
202	0x428a166c	69.04379
203	0x4278a115	62.157307
204	0x4399ebc7	307.842
205	0x42bd47ad	94.63999
206	0x4164e40f	14.305678
207	0x41b266ef	22.30026
208	0x42be5fb9	95.18696
209	0x4351bc76	209.73618
210	0x43985dfc	304.73425
211	0x4304a8e6	132.65976
212	0x4121c287	10.109992
213	0x42d8a204	108.31644
214	0x42516787	52.3511
215	0x43738ed5	243.55794
216	0x41e180c7	28.18788
217	0x43221140	162.06738
218	0x432af4b0	170.95581
219	0x4312359d	146.20943
220	0x4304352d	132.20772
221	0x43449d54	196.61456
222	0x42dfb6d5	111.85709
223	0x4273dae2	60.963753
224	0x424a42ce	50.56524
225	0x434d2929	205.16078
226	0x4299a966	76.83086
227	0x43ce2aa8	412.33325
228	0x4295d99e	74.92503
229	0x421e70c8	39.610138
230	0x43751d65	245.11482
231	0x42e5ce25	114.902626
232	0x43119285	145.57234
233	0x429d2b4e	78.58458
234	0x4089ff94	4.3124485
235	0x4302b4ad	130.70576
236	0x4316a665	150.64998
237	0x420d277a	35.28855
238	0x437b47fc	251.28119
239	0x434ec3b0	206.7644
240	0x430820ec	136.1286
241	0x42921e11	73.05872
242	0x4275ffbe	61.49975
243	0x432b7db7	171.49107
244	0x4261dcbb	56.465557
245	0x430ea9fd	142.66402
246	0x42259183	41.3921
247	0x441f82cd	638.04376
248	0x4318fcb7	152.98717
249	0x427ef60c	63.74028
250	0x4341d3ac	193.82684
251	0x425dfa6b	55.49455
252	0x422548a0	41.320923
253	0x421eca16	39.69735
254	0x43481dd2	200.11649
255	0x4343738d	195.45137

fc2.weight f4 [128, 258]
0	0xbe8159cf	-0.2526383
1	0x3dd49f4b	0.10381945
2	0xbdfb5afd	-0.12273214
3	0xbdd169c2	-0.1022525
4	0xbde90f85	-0.11379913
5	0xbc10102b	-0.008792917
6	0x3d9d3767	0.07676583
7	0xbbd43cfb	-0.006476996
8	0xbd2bb0a8	-0.04191652
9	0xbe2a526e	-0.16633007
10	0x3d99660f	0.07490169
11	0x3d8f2403	0.069892906
12	0xbdc5fd9e	-0.09667514
13	0xbd93c116	-0.072145626
14	0xbd7a03e3	-0.061038863
15	0xbe232894	-0.15933448
16	0xbe18583c	-0.14877409
17	0xbcd9b1b8	-0.026574
18	0xbe4e8128	-0.20166457
19	0x3dd515a4	0.10404518
20	0x3e1a9afc	0.15098184
21	0xbce0208c	-0.02735927
22	0xbe1c082b	-0.15237491
23	0xbe0a80b4	-0.13525659
24	0x3df442b4	0.11926785
25	0xbcce928e	-0.025216367
26	0x3d8c14f5	0.06839935
27	0x3d57bc4a	0.0526698
28	0xbe1bb1ee	-0.15204594
29	0xbdba2cc2	-0.09090568
30	0x3d3713ed	0.044696737
31	0x3d3c72cd	0.04600792
32	0xbe7f3aac	-0.24924725
33	0xbe3928a9	-0.18081917
34	0x3cab641c	0.02092176
35	0xbcbbcf6d	-0.022926057
36	0x3ccc4524	0.024935313
37	0xbe201971	-0.15634705
38	0xbe873009	-0.26403835
39	0xbde9d84c	-0.114182085
40	0xbe20c0bb	-0.15698521
41	0x3d547d40	0.05187726
42	0x3d5e7111	0.054307047
43	0x3c3b978e	0.011449708
44	0xbda14f6b	-0.07876476
45	0x3cff5daf	0.031172602
46	0xbd1a1028	-0.037613064
47	0x3e1af73d	0.15133376
48	0x3cd1ceca	0.0256113
49	0x3e2445cc	0.1604225
50	0x3e04c41c	0.12965435
51	0xbd7edbb5	-0.062221248
52	0xbe511376	-0.2041758
53	0xbd04d804	-0.03243257
54	0x3e4a6358	0.19764459
55	0x3ca91413	0.020639455
56	0x3d5a7917	0.053338137
57	0xbe44b5fa	-0.19210044
58	0xbd0373c8	-0.03209284
59	0x3d9c7354	0.076391846
60	0xbe07b187	-0.13251315
61	0x3d930fed	0.07180772
62	0xbdbe08e7	-0.09279042
63	0x3e0716f1	0.13192345
64	0x3cda2e0b	0.026633283
65	0x3e9b4ef3	0.3033367
66	0x3e80286f	0.25030848
67	0x3dcd9f7b	0.10040184
68	0xbe481b1d	-0.19541593
69	0xbd9f1b6b	-0.077689014
70	0xbca98833	-0.020694828
71	0x3d8f52f7	0.06998246
72	0xbe2b761a	-0.16744271
73	0xbe90656c	-0.2820238
74	0xbd203230	-0.039110363
75	0xbcdc3a48	-0.02688326
76	0xbd5b4384	-0.053531185
77	0xbe4148f5	-0.18875487
78	0xbe6e7a7a	-0.23288909
79	0xbd57e787	-0.052711036
80	0xbb60ee9c	-0.003432191
81	0xbe972bcd	-0.29525605
82	0xbe445768	-0.19173968
83	0x3d2786b9	0.040899966
84	0xbdbfe16a	-0.09369166
85	0x3cb90a3d	0.02258789
86	0xbe326fcc	-0.1742546
87	0xbe1af1d1	-0.15131308
88	0xbda0b7cf	-0.07847559
89	0xbd62f574	-0.055409864
90	0x3e0053fc	0.12532037
91	0xbd0d611a	-0.03451643
92	0x3e54d5d1	0.2078469
93	0xbe1ac225	-0.15113123
94	0xbd969c1e	-0.07353996
95	0x3dd25572	0.10270204
96	0xbd371376	-0.044696294
97	0xbd73b0bf	-0.05949473
98	0x3d4d8703	0.050177585
99	0x3d6c4f99	0.057693098
100	0x3e27d024	0.16387993
101	0xbe687e61	-0.2270446
102	0xbd96925b	-0.07352134
103	0xbd86b2a4	-0.06577042
104	0x3df7f0d5	0.12106482
105	0x3e1b3045	0.15155132
106	0x3d9a001a	0.075195506
107	0x3dade90c	0.08491716
108	0x3e37568d	0.1790411
109	0xbe579869	-0.21054234
110	0xbd17f943	-0.03710295
111	0x3e18009e	0.14843985
112	0x3e2bd23c	0.16779417
113	0xbe26679b	-0.1625046
114	0x3de0beb2	0.10973872
115	0xbcc6f1cc	-0.02428522
116	0xbd2b4653	-0.041815113
117	0xbd1ef609	-0.038808856
118	0xbdde7cd6	-0.10863654
119	0xbdd32f9d	-0.10311816
120	0xbdd2aba3	-0.10286643
121	0x3e306f99	0.17230071
122	0x3e39b0f2	0.18133906
123	0x3cab7af7	0.020932658
124	0xbcd90259	-0.026490377
125	0xbdc6ad2f	-0.09701001
126	0xbd7e64d0	-0.06210786
127	0xbe1d0d7b	-0.15337174
128	0x3c129f5a	0.008949125
129	0x3de86374	0.11347094
130	0xbd0a150b	-0.033711474
131	0xbe28d204	-0.16486365
132	0x3d18b294	0.03727968
133	0x3dae6593	0.085154675
134	0x3ea78d4e	0.32724994
135	0xbd09c303	-0.033633243
136	0xbd8f0c3e	-0.06984757
137	0x3c0918a7	0.008367694
138	0xbe05144a	-0.12996021
139	0xbe491ee2	-0.19640687
140	0xbddab7b1	-0.106795676
141	0xbcf63f7c	-0.030059569
142	0x3c298227	0.010345972
143	0xbd8a7fed	-0.06762681
144	0x3e0ba02c	0.1363532
145	0xbdb67f23	-0.08910968
146	0x3dfb6c1f	0.12276482
147	0x3de0716d	0.10959134
148	0x3e044a57	0.12918983
149	0xbdbc6522	-0.09198977
150	0x3d97976e	0.0740193
151	0xbdadcaa1	-0.08485914
152	0x3d8ea41b	0.069648944
153	0xbe56a97e	-0.20963094
154	0xbd2572e7	-0.040392783
155	0x3d503564	0.050832167
156	0x3dcc2979	0.09968848
157	0x3dc31920	0.095262766
158	0x3e37b34a	0.17939487
159	0xbc9e35cd	-0.019312764
160	0xbd32a805	-0.043617267
161	0x3c6c34a7	0.01441685
162	0x3e610167	0.21973191
163	0xbc41121f	-0.011784106
164	0x3d30a269	0.043123636
165	0xbb87efda	-0.0041484656
166	0xbd2e45cd	-0.042547036
167	0xbd2232cf	-0.039599236
168	0x3e330d9b	0.17485659
169	0xbe691254	-0.22760898
170	0xbd2ba628	-0.041906506
171	0xbc8b28db	-0.016987255
172	0x3d5b2014	0.05349739
173	0x3d9c7a5f	0.07640528
174	0xbe1e9f05	-0.15490349
175	0x3e0ed535	0.1394852
176	0xbe9e21d1	-0.30885175
177	0x3da9f6a1	0.08298994
178	0x3cfc2895	0.03078107
179	0xbd034cf6	-0.032055818
180	0x3c0ec38a	0.008713612
181	0x3ce485f3	0.027895903
182	0xbe11de1f	-0.14244889
183	0xbdd69880	-0.10478306
184	0xbe485e1d	-0.19567151
185	0x3d2f2f18	0.04276952
186	0xbe2b05ae	-0.16701385
187	0xbe35469e	-0.1770272
188	0x3de4bc68	0.11168748
189	0x3d57e432	0.05270786
190	0xbcf6c505	-0.030123243
191	0xbe739548	-0.23787415
192	0x3bca272c	0.0061692204
193	0x3d40a07c	0.04702805
194	0xbd616f0f	-0.055037554
195	0xbc9c7037	-0.019096477
196	0xbd850836	-0.06495707
197	0xbe8ec9e8	-0.27888417
198	0xbdd5bef6	-0.104368135
199	0xbc963b95	-0.018338958
200	0x3e691f2e	0.227658
201	0x3dbd55e0	0.09244895
202	0xbdc9609a	-0.098328784
203	0x3d69bce4	0.057064906
204	0x3d435ee2	0.04769791
205	0xbd8217b7	-0.063521795
206	0xbdecad0a	-0.11556442
207	0xbcbc87e7	-0.023014022
208	0x3d880475	0.06641475
209	0xbde33504	-0.11094096
210	0xbd5beb8d	-0.053691436
211	0xbc68dafd	-0.014212367
212	0xbe4e8185	-0.20166595
213	0xbd875bea	-0.06609328
214	0xbdcc3d50	-0.09972632
215	0x3d5a039c	0.0532261
216	0x3e12d019	0.14337195
217	0xbc537ec1	-0.012908638
218	0x3dc84eaf	0.09780633
219	0xbe3a7b4c	-0.18211097
220	0x3cf73133	0.030174827
221	0x3d4666e0	0.048437953
222	0x3d2564f1	0.04037947
223	0x3d56d742	0.05245138
224	0xbde2b558	-0.11069745
225	0xbdc50323	-0.09619739
226	0xbd57f718	-0.05272588
227	0xbd5c5ca7	-0.053799298
228	0x3dd012a8	0.101598084
229	0xbd5ab798	-0.053397745
230	0xbdc41579	-0.09574408
231	0xbd139fd1	-0.036041085
232	0xbdd57958	-0.10423535
233	0x3cb11cd4	0.021620192
234	0xbe91c7e6	-0.28472823
235	0xbdbd3a71	-0.092396624
236	0xbd093f6b	-0.033507746
237	0xbdf03298	-0.117284
238	0xbdb6fe9f	-0.08935284
239	0xbd80738b	-0.06272038
240	0xbd55952e	-0.052144222
241	0x3d9c2585	0.07624344
242	0x3d87a66f	0.066235416
243	0x3e0d9e54	0.13829929
244	0xbd9d0b4d	-0.07668171
245	0x3d7185e9	0.058965597
246	0xbe23d2ec	-0.15998429
247	0x3d8265cf	0.06367075
248	0x3e24065c	0.16018051
249	0x3c476830	0.012170836
250	0xbdcfdbcd	-0.101493455
251	0xbe68ec65	-0.22746427
252	0x3dd92824	0.10603359
253	0xbce9ab21	-0.028523983
254	0xbda9a834	-0.08284035
255	0xbdaa7470	-0.0832299

fc2.bias f4 [128]
0	0xbe592e39	-0.21209039
1	0xbee5c420	-0.44876194
2	0xbf1ed221	-0.6203938
3	0x3f0a865b	0.5411126
4	0x3d83fa69	0.06444246
5	0xbf4cdd50	-0.80025196
6	0xbe656644	-0.22402292
7	0xbeb85c94	-0.36008132
8	0xbf304ab4	-0.6886399
9	0xbecdd364	-0.4020034
10	0xbe60fdb8	-0.21971786
11	0xbeeef34b	-0.46669993
12	0x3e51a8df	0.20474575
13	0xbe79f6b3	-0.24410515
14	0xbe278a6c	-0.16361398
15	0x3e8ff1dd	0.28114215
16	0xbccfd79e	-0.025371369
17	0xbed694f1	-0.41910508
18	0xbdc1d533	-0.09464493
19	0xbf1aba0e	-0.60440147
20	0xbe9489d6	-0.2901141
21	0x3e8b7d95	0.2724425
22	0xbf282a26	-0.65689313
23	0x3e00e2bd	0.12586494
24	0xbe4325cb	-0.19057386
25	0xbf346df4	-0.70480275
26	0xbe850f2f	-0.25988147
27	0x3e9c358e	0.3050961
28	0xbedcd69e	-0.4313249
29	0xbf23303b	-0.6374547
30	0xbef81114	-0.4845053
31	0xbe9644b1	-0.29349282
32	0x3eba5cbb	0.36398873
33	0xbe8e592e	-0.27802414
34	0xbe9c9219	-0.30580214
35	0xbf173b9b	-0.59075326
36	0xbe443d9b	-0.19164126
37	0x3e7771cf	0.24164508
38	0xbe4e05c9	-0.20119394
39	0xbe989e8a	-0.29808456
40	0xbef6454c	-0.48099744
41	0xbebcd505	-0.3688127
42	0xbf1641cb	-0.5869414
43	0xbf09b618	-0.5379348
44	0x3dfe7600	0.124248505
45	0x3f11d637	0.5696749
46	0x3da265a8	0.07929546
47	0xbf5dc84e	-0.86633766
48	0xbe5f41df	-0.21802472
49	0xbe010688	-0.12600148
50	0xbf1698e6	-0.58827055
51	0xbe86a5b0	-0.26298285
52	0xbed2a63f	-0.4114246
53	0x3dce56bb	0.10075136
54	0xbe88d2c2	-0.26723295
55	0xbe0c3593	-0.13692312
56	0xbe8e1afa	-0.27754956
57	0xbe2aec94	-0.1669181
58	0xbd6770c2	-0.05650402
59	0x3e1da465	0.15394743
60	0x3d08065b	0.033209186
61	0xbf1164d8	-0.567945
62	0xbd058b91	-0.032603804
63	0xbf370757	-0.71495575
64	0xbea380f2	-0.31934315
65	0x3e33e95d	0.1756949
66	0xbebf894b	-0.37409434
67	0xbf1cfb24	-0.6132071
68	0xbeb6e00d	-0.35717812
69	0xbe4b74da	-0.19868794
70	0xbf538b4f	-0.82634443
71	0xba7eb03e	-0.0009715593
72	0xbf20a8ca	-0.6275755
73	0xbe2aef2a	-0.16692796
74	0xbeb7705d	-0.35827914
75	0xbe894c0a	-0.26815826
76	0xbf357bf6	-0.70892274
77	0xbe665fb2	-0.22497442
78	0xbee763d3	-0.45193347
79	0xbe9d6ed7	-0.30748627
80	0xbebdac86	-0.37045687
81	0xbe60b0e9	-0.21942486
82	0xbe399ed2	-0.18126991
83	0xbe0b7544	-0.13618952
84	0xbec3efb3	-0.38268813
85	0xbeb3309b	-0.3499802
86	0xbecf71fc	-0.4051665
87	0xbc427152	-0.011867838
88	0xbee45774	-0.4459797
89	0xbf087941	-0.5331002
90	0xbede905c	-0.43469512
91	0xbbf17299	-0.0073683974
92	0x3e0562d1	0.13025977
93	0xbe426e3c	-0.18987364
94	0xbec88597	-0.3916442
95	0xbe57e1d3	-0.21082239
96	0xbe7c8fb7	-0.24664198
97	0xbec09e38	-0.3762071
98	0x3dbffc54	0.093743
99	0xbf1fe918	-0.6246505
100	0xbef7b8c9	-0.48383167
101	0xbeacdd96	-0.33762807
102	0xbe78075b	-0.24221556
103	0xbec3b4a7	-0.38223764
104	0xbdf8a346	-0.12140517
105	0xbe7b1992	-0.24521473
106	0xbea764a6	-0.32693976
107	0xbe7bac59	-0.24577464
108	0xbe5484c2	-0.20753768
109	0x3d1e8e28	0.03870979
110	0xbf4501e9	-0.7695604
111	0xbeb4bbf0	-0.35299635
112	0xbec3777f	-0.38177106
113	0xbeba874d	-0.3643135
114	0xbdd54ff6	-0.10415642
115	0xbdfac95f	-0.1224544
116	0xbf243990	-0.64150333
117	0x3ddebc0b	0.1087571
118	0x3e12635f	0.1429572
119	0x3e1291da	0.1431345
120	0xbec7aa52	-0.38997132
121	0xbce81b87	-0.028333439
122	0xbd096aeb	-0.03354923
123	0xbec82419	-0.3909004
124	0x3d9b020b	0.07568749
125	0xbe99f76e	-0.30071586
126	0xbe80d1db	-0.25160107
127	0xbe3b9920	-0.18320131
